name: "VGG_ILSVRC_16"

input: "data"
input_dim: 1
input_dim: 3
input_dim: 224
input_dim: 224

# 1121 newly added for conv6
input: "labels"
input_dim: 1 		# to be changed on-the-fly to match input dim
input_dim: 10            # 4(anchors)        
input_dim: 14  		# size for 224 input image, to be changed on-the-fly to match input dim, 14--> 28 (resolution doubled)
input_dim: 14  		# size for 224 input image, to be changed on-the-fly to match input dim, 14--> 28 (resolution doubled)

input: "labels_weights"
input_dim: 1 		# to be changed on-the-fly to match input dim
input_dim: 10            # 4(anchors)        
input_dim: 14  		# size for 224 input image, to be changed on-the-fly to match input dim, 14--> 28 (resolution doubled)
input_dim: 14  		# size for 224 input image, to be changed on-the-fly to match input dim, 14--> 28 (resolution doubled)

input: "bbox_targets"
input_dim: 1  		# to be changed on-the-fly to match input dim
input_dim: 40  		# 4 (coords) * 4(anchors) 
input_dim: 14  		# size for 224 input image, to be changed on-the-fly to match input dim, 14--> 28 (resolution doubled)
input_dim: 14  		# size for 224 input image, to be changed on-the-fly to match input dim, 14--> 28 (resolution doubled)

input: "bbox_loss_weights"
input_dim: 1  		# to be changed on-the-fly to match input dim
input_dim: 40 		# 4 (coords) * 4(anchors) 
input_dim: 14  		# size for 224 input image, to be changed on-the-fly to match input dim, 14--> 28 (resolution doubled)
input_dim: 14  		# size for 224 input image, to be changed on-the-fly to match input dim, 14--> 28 (resolution doubled)

layer {
	bottom: "data"
	top: "conv1_1"
	name: "conv1_1"
	type: "Convolution"
	param {
		lr_mult: 0.0
	}
	param {
		lr_mult: 0.0
	}
	convolution_param {
		num_output: 64
		pad: 1
		kernel_size: 3
	}
}

layer {
	bottom: "conv1_1"
	top: "conv1_1"
	name: "relu1_1"
	type: "ReLU"
}

layer {
	bottom: "conv1_1"
	top: "conv1_2"
	name: "conv1_2"
	param {
		lr_mult: 0.0
	}
	param {
		lr_mult: 0.0
	}
	type: "Convolution"
	convolution_param {
		num_output: 64
		pad: 1
		kernel_size: 3
	}
}

layer {
	bottom: "conv1_2"
	top: "conv1_2"
	name: "relu1_2"
	type: "ReLU"
}

layer {
	bottom: "conv1_2"
	top: "pool1"
	name: "pool1"
	type: "Pooling"
	pooling_param {
		pool: MAX
		kernel_size: 2
		stride: 2
	}
}

layer {
	bottom: "pool1"
	top: "conv2_1"
	name: "conv2_1"
	param {
		lr_mult: 0.0
	}
	param {
		lr_mult: 0.0
	}
	type: "Convolution"
	convolution_param {
		num_output: 128
		pad: 1
		kernel_size: 3
	}
}

layer {
	bottom: "conv2_1"
	top: "conv2_1"
	name: "relu2_1"
	type: "ReLU"
}

layer {
	bottom: "conv2_1"
	top: "conv2_2"
	name: "conv2_2"
	param {
		lr_mult: 0.0
	}
	param {
		lr_mult: 0.0
	}
	type: "Convolution"
	convolution_param {
		num_output: 128
		pad: 1
		kernel_size: 3
	}
}

layer {
	bottom: "conv2_2"
	top: "conv2_2"
	name: "relu2_2"
	type: "ReLU"
}

layer {
	bottom: "conv2_2"
	top: "pool2"
	name: "pool2"
	type: "Pooling"
	pooling_param {
		pool: MAX
		kernel_size: 2
		stride: 2
	}
}

layer {
	bottom: "pool2"
	top: "conv3_1"
	name: "conv3_1"
	param {
		lr_mult: 1.0
	}
	param {
		lr_mult: 2.0
	}
	type: "Convolution"
	convolution_param {
		num_output: 256
		pad: 1
		kernel_size: 3
	}
}

layer {
	bottom: "conv3_1"
	top: "conv3_1"
	name: "relu3_1"
	type: "ReLU"
}

layer {
	bottom: "conv3_1"
	top: "conv3_2"
	name: "conv3_2"
	param {
		lr_mult: 1.0
	}
	param {
		lr_mult: 2.0
	}
	type: "Convolution"
	convolution_param {
		num_output: 256
		pad: 1
		kernel_size: 3
	}
}

layer {
	bottom: "conv3_2"
	top: "conv3_2"
	name: "relu3_2"
	type: "ReLU"
}

layer {
	bottom: "conv3_2"
	top: "conv3_3"
	name: "conv3_3"
	param {
		lr_mult: 1.0
	}
	param {
		lr_mult: 2.0
	}
	type: "Convolution"
	convolution_param {
		num_output: 256
		pad: 1
		kernel_size: 3
	}
}

layer {
	bottom: "conv3_3"
	top: "conv3_3"
	name: "relu3_3"
	type: "ReLU"
}

# 1205: re-add conv4_1~conv4_3 to improve resolution

layer {
	bottom: "conv3_3"
	top: "pool3"
	name: "pool3"
	type: "Pooling"
	pooling_param {
		pool: MAX
		kernel_size: 2
		stride: 2
	}
}

layer {
	bottom: "pool3"
	top: "conv4_1"
	name: "conv4_1"
	param {
		lr_mult: 1.0
	}
	param {
		lr_mult: 2.0
	}
	type: "Convolution"
	convolution_param {
		num_output: 512
		pad: 1
		kernel_size: 3
	}
}

layer {
	bottom: "conv4_1"
	top: "conv4_1"
	name: "relu4_1"
	type: "ReLU"
}

layer {
	bottom: "conv4_1"
	top: "conv4_2"
	name: "conv4_2"
	param {
		lr_mult: 1.0
	}
	param {
		lr_mult: 2.0
	}
	type: "Convolution"
	convolution_param {
		num_output: 512
		pad: 1
		kernel_size: 3
	}
}

layer {
	bottom: "conv4_2"
	top: "conv4_2"
	name: "relu4_2"
	type: "ReLU"
}

layer {
	bottom: "conv4_2"
	top: "conv4_3"
	name: "conv4_3"
	param {
		lr_mult: 1.0
	}
	param {
		lr_mult: 2.0
	}
	type: "Convolution"
	convolution_param {
		num_output: 512
		pad: 1
		kernel_size: 3
	}
}

layer {
	bottom: "conv4_3"
	top: "conv4_3"
	name: "relu4_3"
	type: "ReLU"
}

# -------------------- for conv5's -----------------------------
layer {
	bottom: "conv4_3"
	top: "pool4"
	name: "pool4"
	type: "Pooling"
	pooling_param {
		pool: MAX
		kernel_size: 2
		stride: 2
	}
}

layer {
	bottom: "pool4"
	top: "conv5_1"
	name: "conv5_1"
	param {
		lr_mult: 1.0
	}
	param {
		lr_mult: 2.0
	}
	type: "Convolution"
	convolution_param {
		num_output: 512
		pad: 1
		kernel_size: 3
	}
}

layer {
	bottom: "conv5_1"
	top: "conv5_1"
	name: "relu5_1"
	type: "ReLU"
}

layer {
	bottom: "conv5_1"
	top: "conv5_2"
	name: "conv5_2"
	param {
		lr_mult: 1.0
	}
	param {
		lr_mult: 2.0
	}
	type: "Convolution"
	convolution_param {
		num_output: 512
		pad: 1
		kernel_size: 3
	}
}

layer {
	bottom: "conv5_2"
	top: "conv5_2"
	name: "relu5_2"
	type: "ReLU"
}

layer {
	bottom: "conv5_2"
	top: "conv5_3"
	name: "conv5_3"
	param {
		lr_mult: 1.0
	}
	param {
		lr_mult: 2.0
	}
	type: "Convolution"
	convolution_param {
		num_output: 512
		pad: 1
		kernel_size: 3
	}
}

layer {
	bottom: "conv5_3"
	top: "conv5_3"
	name: "relu5_3"
	type: "ReLU"
}

#1211 added to normalize conv5_3 before compute proposal feat
layer {
  name: "conv5_3_norm"
  type: "Normalize"
  bottom: "conv5_3"
  top: "conv5_3_norm"
  norm_param {
    across_spatial: false
    scale_filler {
      type: "constant"
      value: 40
    }
    channel_shared: false
  }
}

# normal 3x3 conv without atrous
layer {
   name: "conv5_buffer"
   type: "Convolution"
   bottom: "conv5_3_norm" #"conv5_3"
   top: "conv5_buffer"
	param {
		lr_mult: 1.0
	}
	param {
		lr_mult: 2.0
	}
   convolution_param{
	   num_output: 512
	   kernel_size: 3
	   pad: 1
	   stride: 1
	   weight_filler {
		 type: "gaussian"
		 std: 0.01
	   }
	   bias_filler {
		 type: "constant"
		 value: 0
	   }
   }
}

layer {
   name: "relu_conv5_buffer"
   type: "ReLU"
   bottom: "conv5_buffer"
   top: "conv5_buffer"
}

layer {
   name: "proposal_cls_score"
   type: "Convolution"
   bottom: "conv5_buffer"
   top: "proposal_cls_score"
	param {
		lr_mult: 1.0
	}
	param {
		lr_mult: 2.0
	}
   convolution_param{
	   num_output: 20   # 2(bg/fg) * 10(anchors) 
	   kernel_size: 1
	   pad: 0
	   stride: 1
	   weight_filler {
		 type: "gaussian"
		 std: 0.01
	   }
	   bias_filler {
		 type: "constant"
		 value: 0
	   }
   }
}

layer {
   name: "proposal_bbox_pred"
   type: "Convolution"
   bottom: "conv5_buffer"
   top: "proposal_bbox_pred"
	param {
		lr_mult: 1.0
	}
	param {
		lr_mult: 2.0
	}
   convolution_param{
	   num_output: 40	# 4 * 10(anchors) 
	   kernel_size: 1
	   pad: 0
	   stride: 1
	   weight_filler {
		 type: "gaussian"
		 std: 0.01
	   }
	   bias_filler {
		 type: "constant"
		 value: 0
	   }
   }
}

#-----------------------output2 (for conv5)------------------------

# to enable the calculation of softmax loss, we first reshape blobs related to SoftmaxWithLoss
layer {
   bottom: "proposal_cls_score"
   top: "proposal_cls_score_reshape"
   name: "proposal_cls_score_reshape"
   type: "Reshape"
   reshape_param{
	   shape {
			dim: 0 
			dim: 2
			dim: -1 
			dim: 0
		}
	}
}

layer {
   bottom: "labels"
   top: "labels_reshape"
   name: "labels_reshape"
   type: "Reshape"
   reshape_param{
	   shape {
			dim: 0 
			dim: 1
			dim: -1 
			dim: 0
		}
	}
}

layer {
   bottom: "labels_weights"
   top: "labels_weights_reshape"
   name: "labels_weights_reshape"
   type: "Reshape"
   reshape_param{
	   shape {
			dim: 0 
			dim: 1
			dim: -1 
			dim: 0
		}
	}
}

#1123 add ignore_label
# this is the overall accuracy of all fgs (thresh >= 0.5) and bgs (0 <= thresh < 0.3)
layer {
   name: "accuarcy"
   type: "Accuracy"
   bottom: "proposal_cls_score_reshape"
   bottom: "labels_reshape"
   top: "accuarcy"
   accuracy_param {
        ignore_label: -1
   }
}

# final loss cls output 
layer {
   name: "loss"
   type: "SoftmaxWithLoss"
   bottom: "proposal_cls_score_reshape"
   bottom: "labels_reshape"
   bottom: "labels_weights_reshape"
   top: "loss_cls"
   loss_weight: 1
   propagate_down: true
   propagate_down: false
   propagate_down: false
}

layer {
  name: "loss_bbox"
  type: "SmoothL1Loss"
  bottom: "proposal_bbox_pred" #[1 28 28 28]
  bottom: "bbox_targets"       #[1 28 28 28]
  bottom: "bbox_loss_weights"  #[1 28 28 28]
  top: "loss_bbox"
  loss_weight: 10  #conv3: 80, conv4: 20, conv5: 10?
}
