name: "ResNet-101"
input: "data"
input_dim: 1
input_dim: 3
input_dim: 224
input_dim: 224

# 0120 added for res2plus3
input: "labels_res23"
input_dim: 1 		# to be changed on-the-fly to match input dim
input_dim: 6        # 3 anchors * 2 flips = 6 anchors
input_dim: 56  		# size for 224 input image, to be changed on-the-fly to match input dim, 14--> 28 (resolution doubled)
input_dim: 56  		# size for 224 input image, to be changed on-the-fly to match input dim, 14--> 28 (resolution doubled)

input: "labels_weights_res23"
input_dim: 1 		# to be changed on-the-fly to match input dim
input_dim: 6        # 3 anchors * 2 flips
input_dim: 56  		# size for 224 input image, to be changed on-the-fly to match input dim, 14--> 28 (resolution doubled)
input_dim: 56  		# size for 224 input image, to be changed on-the-fly to match input dim, 14--> 28 (resolution doubled)

input: "bbox_targets_res23"
input_dim: 1  		# to be changed on-the-fly to match input dim
input_dim: 24  		# 4 (coords) * 6(anchors)
input_dim: 56  		# size for 224 input image, to be changed on-the-fly to match input dim, 14--> 28 (resolution doubled)
input_dim: 56  		# size for 224 input image, to be changed on-the-fly to match input dim, 14--> 28 (resolution doubled)

input: "bbox_loss_weights_res23"
input_dim: 1  		# to be changed on-the-fly to match input dim
input_dim: 24  		# 4 (coords) * 6(anchors)
input_dim: 56  		# size for 224 input image, to be changed on-the-fly to match input dim, 14--> 28 (resolution doubled)
input_dim: 56  		# size for 224 input image, to be changed on-the-fly to match input dim, 14--> 28 (resolution doubled)

# 0120 added for res4plus5
input: "labels_res45"
input_dim: 1 		# to be changed on-the-fly to match input dim
input_dim: 8        # 4(anchors) * 2 = 8     
input_dim: 14  		# size for 224 input image, to be changed on-the-fly to match input dim, 14--> 28 (resolution doubled)
input_dim: 14  		# size for 224 input image, to be changed on-the-fly to match input dim, 14--> 28 (resolution doubled)

input: "labels_weights_res45"
input_dim: 1 		# to be changed on-the-fly to match input dim
input_dim: 8        # 4(anchors) * 2 = 8        
input_dim: 14  		# size for 224 input image, to be changed on-the-fly to match input dim, 14--> 28 (resolution doubled)
input_dim: 14  		# size for 224 input image, to be changed on-the-fly to match input dim, 14--> 28 (resolution doubled)

input: "bbox_targets_res45"
input_dim: 1  		# to be changed on-the-fly to match input dim
input_dim: 32  		# 4 (coords) * 8(anchors) 
input_dim: 14  		# size for 224 input image, to be changed on-the-fly to match input dim, 14--> 28 (resolution doubled)
input_dim: 14  		# size for 224 input image, to be changed on-the-fly to match input dim, 14--> 28 (resolution doubled)

input: "bbox_loss_weights_res45"
input_dim: 1  		# to be changed on-the-fly to match input dim
input_dim: 32  		# 4 (coords) * 8(anchors) 
input_dim: 14  		# size for 224 input image, to be changed on-the-fly to match input dim, 14--> 28 (resolution doubled)
input_dim: 14  		# size for 224 input image, to be changed on-the-fly to match input dim, 14--> 28 (resolution doubled)

layer {
    bottom: "data"
    top: "conv1"
    name: "conv1"
    type: "Convolution"
    convolution_param {
        num_output: 64
        kernel_size: 7
        pad: 3
        stride: 2
        bias_term: false
    }
    param {
        lr_mult: 0.0
    }
}

layer {
    bottom: "conv1"
    top: "conv1"
    name: "bn_conv1"
    type: "BatchNorm"
    batch_norm_param {
        use_global_stats: true
    }
    param {
        lr_mult: 0.0
        decay_mult: 0.0
    }
    param {
        lr_mult: 0.0
        decay_mult: 0.0
    }
    param {
        lr_mult: 0.0
        decay_mult: 0.0
    }
}

layer {
    bottom: "conv1"
    top: "conv1"
    name: "scale_conv1"
    type: "Scale"
    scale_param {
        bias_term: true
    }
    param {
        lr_mult: 0.0
        decay_mult: 0.0
    }
    param {
        lr_mult: 0.0
        decay_mult: 0.0
    }
}

layer {
    top: "conv1"
    bottom: "conv1"
    name: "conv1_relu"
    type: "ReLU"
}

layer {
    bottom: "conv1"
    top: "pool1"
    name: "pool1"
    type: "Pooling"
    pooling_param {
        kernel_size: 3
        stride: 2
        pool: MAX
    }
}

layer {
    bottom: "pool1"
    top: "res2a_branch1"
    name: "res2a_branch1"
    type: "Convolution"
    convolution_param {
        num_output: 256
        kernel_size: 1
        pad: 0
        stride: 1
        bias_term: false
    }
    param {
        lr_mult: 1.0
    }
}

layer {
    bottom: "res2a_branch1"
    top: "res2a_branch1"
    name: "bn2a_branch1"
    type: "BatchNorm"
    batch_norm_param {
        use_global_stats: true
    }
    param {
        lr_mult: 0.0
        decay_mult: 0.0
    }
    param {
        lr_mult: 0.0
        decay_mult: 0.0
    }
    param {
        lr_mult: 0.0
        decay_mult: 0.0
    }
}

layer {
    bottom: "res2a_branch1"
    top: "res2a_branch1"
    name: "scale2a_branch1"
    type: "Scale"
    scale_param {
        bias_term: true
    }
    param {
        lr_mult: 0.0
        decay_mult: 0.0
    }
    param {
        lr_mult: 0.0
        decay_mult: 0.0
    }
}

layer {
    bottom: "pool1"
    top: "res2a_branch2a"
    name: "res2a_branch2a"
    type: "Convolution"
    convolution_param {
        num_output: 64
        kernel_size: 1
        pad: 0
        stride: 1
        bias_term: false
    }
    param {
        lr_mult: 1.0
    }
}

layer {
    bottom: "res2a_branch2a"
    top: "res2a_branch2a"
    name: "bn2a_branch2a"
    type: "BatchNorm"
    batch_norm_param {
        use_global_stats: true
    }
    param {
        lr_mult: 0.0
        decay_mult: 0.0
    }
    param {
        lr_mult: 0.0
        decay_mult: 0.0
    }
    param {
        lr_mult: 0.0
        decay_mult: 0.0
    }
}

layer {
    bottom: "res2a_branch2a"
    top: "res2a_branch2a"
    name: "scale2a_branch2a"
    type: "Scale"
    scale_param {
        bias_term: true
    }
    param {
        lr_mult: 0.0
        decay_mult: 0.0
    }
    param {
        lr_mult: 0.0
        decay_mult: 0.0
    }
}

layer {
    top: "res2a_branch2a"
    bottom: "res2a_branch2a"
    name: "res2a_branch2a_relu"
    type: "ReLU"
}

layer {
    bottom: "res2a_branch2a"
    top: "res2a_branch2b"
    name: "res2a_branch2b"
    type: "Convolution"
    convolution_param {
        num_output: 64
        kernel_size: 3
        pad: 1
        stride: 1
        bias_term: false
    }
    param {
        lr_mult: 1.0
    }
}

layer {
    bottom: "res2a_branch2b"
    top: "res2a_branch2b"
    name: "bn2a_branch2b"
    type: "BatchNorm"
    batch_norm_param {
        use_global_stats: true
    }
    param {
        lr_mult: 0.0
        decay_mult: 0.0
    }
    param {
        lr_mult: 0.0
        decay_mult: 0.0
    }
    param {
        lr_mult: 0.0
        decay_mult: 0.0
    }
}

layer {
    bottom: "res2a_branch2b"
    top: "res2a_branch2b"
    name: "scale2a_branch2b"
    type: "Scale"
    scale_param {
        bias_term: true
    }
    param {
        lr_mult: 0.0
        decay_mult: 0.0
    }
    param {
        lr_mult: 0.0
        decay_mult: 0.0
    }
}

layer {
    top: "res2a_branch2b"
    bottom: "res2a_branch2b"
    name: "res2a_branch2b_relu"
    type: "ReLU"
}

layer {
    bottom: "res2a_branch2b"
    top: "res2a_branch2c"
    name: "res2a_branch2c"
    type: "Convolution"
    convolution_param {
        num_output: 256
        kernel_size: 1
        pad: 0
        stride: 1
        bias_term: false
    }
    param {
        lr_mult: 1.0
    }
}

layer {
    bottom: "res2a_branch2c"
    top: "res2a_branch2c"
    name: "bn2a_branch2c"
    type: "BatchNorm"
    batch_norm_param {
        use_global_stats: true
    }
    param {
        lr_mult: 0.0
        decay_mult: 0.0
    }
    param {
        lr_mult: 0.0
        decay_mult: 0.0
    }
    param {
        lr_mult: 0.0
        decay_mult: 0.0
    }
}

layer {
    bottom: "res2a_branch2c"
    top: "res2a_branch2c"
    name: "scale2a_branch2c"
    type: "Scale"
    scale_param {
        bias_term: true
    }
    param {
        lr_mult: 0.0
        decay_mult: 0.0
    }
    param {
        lr_mult: 0.0
        decay_mult: 0.0
    }
}

layer {
    bottom: "res2a_branch1"
    bottom: "res2a_branch2c"
    top: "res2a"
    name: "res2a"
    type: "Eltwise"
}

layer {
    bottom: "res2a"
    top: "res2a"
    name: "res2a_relu"
    type: "ReLU"
}

layer {
    bottom: "res2a"
    top: "res2b_branch2a"
    name: "res2b_branch2a"
    type: "Convolution"
    convolution_param {
        num_output: 64
        kernel_size: 1
        pad: 0
        stride: 1
        bias_term: false
    }
    param {
        lr_mult: 1.0
    }
}

layer {
    bottom: "res2b_branch2a"
    top: "res2b_branch2a"
    name: "bn2b_branch2a"
    type: "BatchNorm"
    batch_norm_param {
        use_global_stats: true
    }
    param {
        lr_mult: 0.0
        decay_mult: 0.0
    }
    param {
        lr_mult: 0.0
        decay_mult: 0.0
    }
    param {
        lr_mult: 0.0
        decay_mult: 0.0
    }
}

layer {
    bottom: "res2b_branch2a"
    top: "res2b_branch2a"
    name: "scale2b_branch2a"
    type: "Scale"
    scale_param {
        bias_term: true
    }
    param {
        lr_mult: 0.0
        decay_mult: 0.0
    }
    param {
        lr_mult: 0.0
        decay_mult: 0.0
    }
}

layer {
    top: "res2b_branch2a"
    bottom: "res2b_branch2a"
    name: "res2b_branch2a_relu"
    type: "ReLU"
}

layer {
    bottom: "res2b_branch2a"
    top: "res2b_branch2b"
    name: "res2b_branch2b"
    type: "Convolution"
    convolution_param {
        num_output: 64
        kernel_size: 3
        pad: 1
        stride: 1
        bias_term: false
    }
    param {
        lr_mult: 1.0
    }
}

layer {
    bottom: "res2b_branch2b"
    top: "res2b_branch2b"
    name: "bn2b_branch2b"
    type: "BatchNorm"
    batch_norm_param {
        use_global_stats: true
    }
    param {
        lr_mult: 0.0
        decay_mult: 0.0
    }
    param {
        lr_mult: 0.0
        decay_mult: 0.0
    }
    param {
        lr_mult: 0.0
        decay_mult: 0.0
    }
}

layer {
    bottom: "res2b_branch2b"
    top: "res2b_branch2b"
    name: "scale2b_branch2b"
    type: "Scale"
    scale_param {
        bias_term: true
    }
    param {
        lr_mult: 0.0
        decay_mult: 0.0
    }
    param {
        lr_mult: 0.0
        decay_mult: 0.0
    }
}

layer {
    top: "res2b_branch2b"
    bottom: "res2b_branch2b"
    name: "res2b_branch2b_relu"
    type: "ReLU"
}

layer {
    bottom: "res2b_branch2b"
    top: "res2b_branch2c"
    name: "res2b_branch2c"
    type: "Convolution"
    convolution_param {
        num_output: 256
        kernel_size: 1
        pad: 0
        stride: 1
        bias_term: false
    }
    param {
        lr_mult: 1.0
    }
}

layer {
    bottom: "res2b_branch2c"
    top: "res2b_branch2c"
    name: "bn2b_branch2c"
    type: "BatchNorm"
    batch_norm_param {
        use_global_stats: true
    }
    param {
        lr_mult: 0.0
        decay_mult: 0.0
    }
    param {
        lr_mult: 0.0
        decay_mult: 0.0
    }
    param {
        lr_mult: 0.0
        decay_mult: 0.0
    }
}

layer {
    bottom: "res2b_branch2c"
    top: "res2b_branch2c"
    name: "scale2b_branch2c"
    type: "Scale"
    scale_param {
        bias_term: true
    }
    param {
        lr_mult: 0.0
        decay_mult: 0.0
    }
    param {
        lr_mult: 0.0
        decay_mult: 0.0
    }
}

layer {
    bottom: "res2a"
    bottom: "res2b_branch2c"
    top: "res2b"
    name: "res2b"
    type: "Eltwise"
}

layer {
    bottom: "res2b"
    top: "res2b"
    name: "res2b_relu"
    type: "ReLU"
}

layer {
    bottom: "res2b"
    top: "res2c_branch2a"
    name: "res2c_branch2a"
    type: "Convolution"
    convolution_param {
        num_output: 64
        kernel_size: 1
        pad: 0
        stride: 1
        bias_term: false
    }
    param {
        lr_mult: 1.0
    }
}

layer {
    bottom: "res2c_branch2a"
    top: "res2c_branch2a"
    name: "bn2c_branch2a"
    type: "BatchNorm"
    batch_norm_param {
        use_global_stats: true
    }
    param {
        lr_mult: 0.0
        decay_mult: 0.0
    }
    param {
        lr_mult: 0.0
        decay_mult: 0.0
    }
    param {
        lr_mult: 0.0
        decay_mult: 0.0
    }
}

layer {
    bottom: "res2c_branch2a"
    top: "res2c_branch2a"
    name: "scale2c_branch2a"
    type: "Scale"
    scale_param {
        bias_term: true
    }
    param {
        lr_mult: 0.0
        decay_mult: 0.0
    }
    param {
        lr_mult: 0.0
        decay_mult: 0.0
    }
}

layer {
    top: "res2c_branch2a"
    bottom: "res2c_branch2a"
    name: "res2c_branch2a_relu"
    type: "ReLU"
}

layer {
    bottom: "res2c_branch2a"
    top: "res2c_branch2b"
    name: "res2c_branch2b"
    type: "Convolution"
    convolution_param {
        num_output: 64
        kernel_size: 3
        pad: 1
        stride: 1
        bias_term: false
    }
    param {
        lr_mult: 1.0
    }
}

layer {
    bottom: "res2c_branch2b"
    top: "res2c_branch2b"
    name: "bn2c_branch2b"
    type: "BatchNorm"
    batch_norm_param {
        use_global_stats: true
    }
    param {
        lr_mult: 0.0
        decay_mult: 0.0
    }
    param {
        lr_mult: 0.0
        decay_mult: 0.0
    }
    param {
        lr_mult: 0.0
        decay_mult: 0.0
    }
}

layer {
    bottom: "res2c_branch2b"
    top: "res2c_branch2b"
    name: "scale2c_branch2b"
    type: "Scale"
    scale_param {
        bias_term: true
    }
    param {
        lr_mult: 0.0
        decay_mult: 0.0
    }
    param {
        lr_mult: 0.0
        decay_mult: 0.0
    }
}

layer {
    top: "res2c_branch2b"
    bottom: "res2c_branch2b"
    name: "res2c_branch2b_relu"
    type: "ReLU"
}

layer {
    bottom: "res2c_branch2b"
    top: "res2c_branch2c"
    name: "res2c_branch2c"
    type: "Convolution"
    convolution_param {
        num_output: 256
        kernel_size: 1
        pad: 0
        stride: 1
        bias_term: false
    }
    param {
        lr_mult: 1.0
    }
}

layer {
    bottom: "res2c_branch2c"
    top: "res2c_branch2c"
    name: "bn2c_branch2c"
    type: "BatchNorm"
    batch_norm_param {
        use_global_stats: true
    }
    param {
        lr_mult: 0.0
        decay_mult: 0.0
    }
    param {
        lr_mult: 0.0
        decay_mult: 0.0
    }
    param {
        lr_mult: 0.0
        decay_mult: 0.0
    }
}

layer {
    bottom: "res2c_branch2c"
    top: "res2c_branch2c"
    name: "scale2c_branch2c"
    type: "Scale"
    scale_param {
        bias_term: true
    }
    param {
        lr_mult: 0.0
        decay_mult: 0.0
    }
    param {
        lr_mult: 0.0
        decay_mult: 0.0
    }
}

layer {
    bottom: "res2b"
    bottom: "res2c_branch2c"
    top: "res2c"
    name: "res2c"
    type: "Eltwise"
}

layer {
    bottom: "res2c"
    top: "res2c"
    name: "res2c_relu"
    type: "ReLU"
}

# ========= add prediction layer for res2 =================
layer {
  name: "res2c_norm"
  type: "Normalize"
  bottom: "res2c"
  top: "res2c_norm"
  norm_param {
    across_spatial: false
    scale_filler {
      type: "constant"
      value: 40  #1120: 20-->40, since its channel is only 256, so need 80?
    }
    channel_shared: false
  }
}

layer {
   name: "res2_proposal"
   type: "Convolution"
   bottom: "res2c_norm"
   top: "res2_proposal"
	param {
		lr_mult: 1.0
	}
	param {
		lr_mult: 2.0
	}
   convolution_param{
	   num_output: 256
	   kernel_size: 3
	   pad: 1
	   stride: 1
	   weight_filler {
		 type: "gaussian"
		 std: 0.01
	   }
	   bias_filler {
		 type: "constant"
		 value: 0
	   }
   }
}
# ================end res2 prediction=================

layer {
    bottom: "res2c"
    top: "res3a_branch1"
    name: "res3a_branch1"
    type: "Convolution"
    convolution_param {
        num_output: 512
        kernel_size: 1
        pad: 0
        stride: 2
        bias_term: false
    }
    param {
        lr_mult: 1.0
    }
}

layer {
    bottom: "res3a_branch1"
    top: "res3a_branch1"
    name: "bn3a_branch1"
    type: "BatchNorm"
    batch_norm_param {
        use_global_stats: true
    }
    param {
        lr_mult: 0.0
        decay_mult: 0.0
    }
    param {
        lr_mult: 0.0
        decay_mult: 0.0
    }
    param {
        lr_mult: 0.0
        decay_mult: 0.0
    }
}

layer {
    bottom: "res3a_branch1"
    top: "res3a_branch1"
    name: "scale3a_branch1"
    type: "Scale"
    scale_param {
        bias_term: true
    }
    param {
        lr_mult: 0.0
        decay_mult: 0.0
    }
    param {
        lr_mult: 0.0
        decay_mult: 0.0
    }
}

layer {
    bottom: "res2c"
    top: "res3a_branch2a"
    name: "res3a_branch2a"
    type: "Convolution"
    convolution_param {
        num_output: 128
        kernel_size: 1
        pad: 0
        stride: 2
        bias_term: false
    }
    param {
        lr_mult: 1.0
    }
}

layer {
    bottom: "res3a_branch2a"
    top: "res3a_branch2a"
    name: "bn3a_branch2a"
    type: "BatchNorm"
    batch_norm_param {
        use_global_stats: true
    }
    param {
        lr_mult: 0.0
        decay_mult: 0.0
    }
    param {
        lr_mult: 0.0
        decay_mult: 0.0
    }
    param {
        lr_mult: 0.0
        decay_mult: 0.0
    }
}

layer {
    bottom: "res3a_branch2a"
    top: "res3a_branch2a"
    name: "scale3a_branch2a"
    type: "Scale"
    scale_param {
        bias_term: true
    }
    param {
        lr_mult: 0.0
        decay_mult: 0.0
    }
    param {
        lr_mult: 0.0
        decay_mult: 0.0
    }
}

layer {
    top: "res3a_branch2a"
    bottom: "res3a_branch2a"
    name: "res3a_branch2a_relu"
    type: "ReLU"
}

layer {
    bottom: "res3a_branch2a"
    top: "res3a_branch2b"
    name: "res3a_branch2b"
    type: "Convolution"
    convolution_param {
        num_output: 128
        kernel_size: 3
        pad: 1
        stride: 1
        bias_term: false
    }
    param {
        lr_mult: 1.0
    }
}

layer {
    bottom: "res3a_branch2b"
    top: "res3a_branch2b"
    name: "bn3a_branch2b"
    type: "BatchNorm"
    batch_norm_param {
        use_global_stats: true
    }
    param {
        lr_mult: 0.0
        decay_mult: 0.0
    }
    param {
        lr_mult: 0.0
        decay_mult: 0.0
    }
    param {
        lr_mult: 0.0
        decay_mult: 0.0
    }
}

layer {
    bottom: "res3a_branch2b"
    top: "res3a_branch2b"
    name: "scale3a_branch2b"
    type: "Scale"
    scale_param {
        bias_term: true
    }
    param {
        lr_mult: 0.0
        decay_mult: 0.0
    }
    param {
        lr_mult: 0.0
        decay_mult: 0.0
    }
}

layer {
    top: "res3a_branch2b"
    bottom: "res3a_branch2b"
    name: "res3a_branch2b_relu"
    type: "ReLU"
}

layer {
    bottom: "res3a_branch2b"
    top: "res3a_branch2c"
    name: "res3a_branch2c"
    type: "Convolution"
    convolution_param {
        num_output: 512
        kernel_size: 1
        pad: 0
        stride: 1
        bias_term: false
    }
    param {
        lr_mult: 1.0
    }
}

layer {
    bottom: "res3a_branch2c"
    top: "res3a_branch2c"
    name: "bn3a_branch2c"
    type: "BatchNorm"
    batch_norm_param {
        use_global_stats: true
    }
    param {
        lr_mult: 0.0
        decay_mult: 0.0
    }
    param {
        lr_mult: 0.0
        decay_mult: 0.0
    }
    param {
        lr_mult: 0.0
        decay_mult: 0.0
    }
}

layer {
    bottom: "res3a_branch2c"
    top: "res3a_branch2c"
    name: "scale3a_branch2c"
    type: "Scale"
    scale_param {
        bias_term: true
    }
    param {
        lr_mult: 0.0
        decay_mult: 0.0
    }
    param {
        lr_mult: 0.0
        decay_mult: 0.0
    }
}

layer {
    bottom: "res3a_branch1"
    bottom: "res3a_branch2c"
    top: "res3a"
    name: "res3a"
    type: "Eltwise"
}

layer {
    bottom: "res3a"
    top: "res3a"
    name: "res3a_relu"
    type: "ReLU"
}

layer {
    bottom: "res3a"
    top: "res3b1_branch2a"
    name: "res3b1_branch2a"
    type: "Convolution"
    convolution_param {
        num_output: 128
        kernel_size: 1
        pad: 0
        stride: 1
        bias_term: false
    }
    param {
        lr_mult: 1.0
    }
}

layer {
    bottom: "res3b1_branch2a"
    top: "res3b1_branch2a"
    name: "bn3b1_branch2a"
    type: "BatchNorm"
    batch_norm_param {
        use_global_stats: true
    }
    param {
        lr_mult: 0.0
        decay_mult: 0.0
    }
    param {
        lr_mult: 0.0
        decay_mult: 0.0
    }
    param {
        lr_mult: 0.0
        decay_mult: 0.0
    }
}

layer {
    bottom: "res3b1_branch2a"
    top: "res3b1_branch2a"
    name: "scale3b1_branch2a"
    type: "Scale"
    scale_param {
        bias_term: true
    }
    param {
        lr_mult: 0.0
        decay_mult: 0.0
    }
    param {
        lr_mult: 0.0
        decay_mult: 0.0
    }
}

layer {
    top: "res3b1_branch2a"
    bottom: "res3b1_branch2a"
    name: "res3b1_branch2a_relu"
    type: "ReLU"
}

layer {
    bottom: "res3b1_branch2a"
    top: "res3b1_branch2b"
    name: "res3b1_branch2b"
    type: "Convolution"
    convolution_param {
        num_output: 128
        kernel_size: 3
        pad: 1
        stride: 1
        bias_term: false
    }
    param {
        lr_mult: 1.0
    }
}

layer {
    bottom: "res3b1_branch2b"
    top: "res3b1_branch2b"
    name: "bn3b1_branch2b"
    type: "BatchNorm"
    batch_norm_param {
        use_global_stats: true
    }
    param {
        lr_mult: 0.0
        decay_mult: 0.0
    }
    param {
        lr_mult: 0.0
        decay_mult: 0.0
    }
    param {
        lr_mult: 0.0
        decay_mult: 0.0
    }
}

layer {
    bottom: "res3b1_branch2b"
    top: "res3b1_branch2b"
    name: "scale3b1_branch2b"
    type: "Scale"
    scale_param {
        bias_term: true
    }
    param {
        lr_mult: 0.0
        decay_mult: 0.0
    }
    param {
        lr_mult: 0.0
        decay_mult: 0.0
    }
}

layer {
    top: "res3b1_branch2b"
    bottom: "res3b1_branch2b"
    name: "res3b1_branch2b_relu"
    type: "ReLU"
}

layer {
    bottom: "res3b1_branch2b"
    top: "res3b1_branch2c"
    name: "res3b1_branch2c"
    type: "Convolution"
    convolution_param {
        num_output: 512
        kernel_size: 1
        pad: 0
        stride: 1
        bias_term: false
    }
    param {
        lr_mult: 1.0
    }
}

layer {
    bottom: "res3b1_branch2c"
    top: "res3b1_branch2c"
    name: "bn3b1_branch2c"
    type: "BatchNorm"
    batch_norm_param {
        use_global_stats: true
    }
    param {
        lr_mult: 0.0
        decay_mult: 0.0
    }
    param {
        lr_mult: 0.0
        decay_mult: 0.0
    }
    param {
        lr_mult: 0.0
        decay_mult: 0.0
    }
}

layer {
    bottom: "res3b1_branch2c"
    top: "res3b1_branch2c"
    name: "scale3b1_branch2c"
    type: "Scale"
    scale_param {
        bias_term: true
    }
    param {
        lr_mult: 0.0
        decay_mult: 0.0
    }
    param {
        lr_mult: 0.0
        decay_mult: 0.0
    }
}

layer {
    bottom: "res3a"
    bottom: "res3b1_branch2c"
    top: "res3b1"
    name: "res3b1"
    type: "Eltwise"
}

layer {
    bottom: "res3b1"
    top: "res3b1"
    name: "res3b1_relu"
    type: "ReLU"
}

layer {
    bottom: "res3b1"
    top: "res3b2_branch2a"
    name: "res3b2_branch2a"
    type: "Convolution"
    convolution_param {
        num_output: 128
        kernel_size: 1
        pad: 0
        stride: 1
        bias_term: false
    }
    param {
        lr_mult: 1.0
    }
}

layer {
    bottom: "res3b2_branch2a"
    top: "res3b2_branch2a"
    name: "bn3b2_branch2a"
    type: "BatchNorm"
    batch_norm_param {
        use_global_stats: true
    }
    param {
        lr_mult: 0.0
        decay_mult: 0.0
    }
    param {
        lr_mult: 0.0
        decay_mult: 0.0
    }
    param {
        lr_mult: 0.0
        decay_mult: 0.0
    }
}

layer {
    bottom: "res3b2_branch2a"
    top: "res3b2_branch2a"
    name: "scale3b2_branch2a"
    type: "Scale"
    scale_param {
        bias_term: true
    }
    param {
        lr_mult: 0.0
        decay_mult: 0.0
    }
    param {
        lr_mult: 0.0
        decay_mult: 0.0
    }
}

layer {
    top: "res3b2_branch2a"
    bottom: "res3b2_branch2a"
    name: "res3b2_branch2a_relu"
    type: "ReLU"
}

layer {
    bottom: "res3b2_branch2a"
    top: "res3b2_branch2b"
    name: "res3b2_branch2b"
    type: "Convolution"
    convolution_param {
        num_output: 128
        kernel_size: 3
        pad: 1
        stride: 1
        bias_term: false
    }
    param {
        lr_mult: 1.0
    }
}

layer {
    bottom: "res3b2_branch2b"
    top: "res3b2_branch2b"
    name: "bn3b2_branch2b"
    type: "BatchNorm"
    batch_norm_param {
        use_global_stats: true
    }
    param {
        lr_mult: 0.0
        decay_mult: 0.0
    }
    param {
        lr_mult: 0.0
        decay_mult: 0.0
    }
    param {
        lr_mult: 0.0
        decay_mult: 0.0
    }
}

layer {
    bottom: "res3b2_branch2b"
    top: "res3b2_branch2b"
    name: "scale3b2_branch2b"
    type: "Scale"
    scale_param {
        bias_term: true
    }
    param {
        lr_mult: 0.0
        decay_mult: 0.0
    }
    param {
        lr_mult: 0.0
        decay_mult: 0.0
    }
}

layer {
    top: "res3b2_branch2b"
    bottom: "res3b2_branch2b"
    name: "res3b2_branch2b_relu"
    type: "ReLU"
}

layer {
    bottom: "res3b2_branch2b"
    top: "res3b2_branch2c"
    name: "res3b2_branch2c"
    type: "Convolution"
    convolution_param {
        num_output: 512
        kernel_size: 1
        pad: 0
        stride: 1
        bias_term: false
    }
    param {
        lr_mult: 1.0
    }
}

layer {
    bottom: "res3b2_branch2c"
    top: "res3b2_branch2c"
    name: "bn3b2_branch2c"
    type: "BatchNorm"
    batch_norm_param {
        use_global_stats: true
    }
    param {
        lr_mult: 0.0
        decay_mult: 0.0
    }
    param {
        lr_mult: 0.0
        decay_mult: 0.0
    }
    param {
        lr_mult: 0.0
        decay_mult: 0.0
    }
}

layer {
    bottom: "res3b2_branch2c"
    top: "res3b2_branch2c"
    name: "scale3b2_branch2c"
    type: "Scale"
    scale_param {
        bias_term: true
    }
    param {
        lr_mult: 0.0
        decay_mult: 0.0
    }
    param {
        lr_mult: 0.0
        decay_mult: 0.0
    }
}

layer {
    bottom: "res3b1"
    bottom: "res3b2_branch2c"
    top: "res3b2"
    name: "res3b2"
    type: "Eltwise"
}

layer {
    bottom: "res3b2"
    top: "res3b2"
    name: "res3b2_relu"
    type: "ReLU"
}

layer {
    bottom: "res3b2"
    top: "res3b3_branch2a"
    name: "res3b3_branch2a"
    type: "Convolution"
    convolution_param {
        num_output: 128
        kernel_size: 1
        pad: 0
        stride: 1
        bias_term: false
    }
    param {
        lr_mult: 1.0
    }
}

layer {
    bottom: "res3b3_branch2a"
    top: "res3b3_branch2a"
    name: "bn3b3_branch2a"
    type: "BatchNorm"
    batch_norm_param {
        use_global_stats: true
    }
    param {
        lr_mult: 0.0
        decay_mult: 0.0
    }
    param {
        lr_mult: 0.0
        decay_mult: 0.0
    }
    param {
        lr_mult: 0.0
        decay_mult: 0.0
    }
}

layer {
    bottom: "res3b3_branch2a"
    top: "res3b3_branch2a"
    name: "scale3b3_branch2a"
    type: "Scale"
    scale_param {
        bias_term: true
    }
    param {
        lr_mult: 0.0
        decay_mult: 0.0
    }
    param {
        lr_mult: 0.0
        decay_mult: 0.0
    }
}

layer {
    top: "res3b3_branch2a"
    bottom: "res3b3_branch2a"
    name: "res3b3_branch2a_relu"
    type: "ReLU"
}

layer {
    bottom: "res3b3_branch2a"
    top: "res3b3_branch2b"
    name: "res3b3_branch2b"
    type: "Convolution"
    convolution_param {
        num_output: 128
        kernel_size: 3
        pad: 1
        stride: 1
        bias_term: false
    }
    param {
        lr_mult: 1.0
    }
}

layer {
    bottom: "res3b3_branch2b"
    top: "res3b3_branch2b"
    name: "bn3b3_branch2b"
    type: "BatchNorm"
    batch_norm_param {
        use_global_stats: true
    }
    param {
        lr_mult: 0.0
        decay_mult: 0.0
    }
    param {
        lr_mult: 0.0
        decay_mult: 0.0
    }
    param {
        lr_mult: 0.0
        decay_mult: 0.0
    }
}

layer {
    bottom: "res3b3_branch2b"
    top: "res3b3_branch2b"
    name: "scale3b3_branch2b"
    type: "Scale"
    scale_param {
        bias_term: true
    }
    param {
        lr_mult: 0.0
        decay_mult: 0.0
    }
    param {
        lr_mult: 0.0
        decay_mult: 0.0
    }
}

layer {
    top: "res3b3_branch2b"
    bottom: "res3b3_branch2b"
    name: "res3b3_branch2b_relu"
    type: "ReLU"
}

layer {
    bottom: "res3b3_branch2b"
    top: "res3b3_branch2c"
    name: "res3b3_branch2c"
    type: "Convolution"
    convolution_param {
        num_output: 512
        kernel_size: 1
        pad: 0
        stride: 1
        bias_term: false
    }
    param {
        lr_mult: 1.0
    }
}

layer {
    bottom: "res3b3_branch2c"
    top: "res3b3_branch2c"
    name: "bn3b3_branch2c"
    type: "BatchNorm"
    batch_norm_param {
        use_global_stats: true
    }
    param {
        lr_mult: 0.0
        decay_mult: 0.0
    }
    param {
        lr_mult: 0.0
        decay_mult: 0.0
    }
    param {
        lr_mult: 0.0
        decay_mult: 0.0
    }
}

layer {
    bottom: "res3b3_branch2c"
    top: "res3b3_branch2c"
    name: "scale3b3_branch2c"
    type: "Scale"
    scale_param {
        bias_term: true
    }
    param {
        lr_mult: 0.0
        decay_mult: 0.0
    }
    param {
        lr_mult: 0.0
        decay_mult: 0.0
    }
}

layer {
    bottom: "res3b2"
    bottom: "res3b3_branch2c"
    top: "res3b3"
    name: "res3b3"
    type: "Eltwise"
}

layer {
    bottom: "res3b3"
    top: "res3b3"
    name: "res3b3_relu"
    type: "ReLU"
}

# ========= add prediction layer for res3 =================
# deconvolution by 2
layer {
  bottom: "res3b3" 
  top: "res3_2x"
  name: "res3_2x" 
  type: "Deconvolution"
  convolution_param {
    kernel_size: 4 
    stride: 2
    num_output: 512
    group: 512
    pad: 1
    weight_filler: { type: "bilinear" } 
    bias_term: false
  }
  param { lr_mult: 0 decay_mult: 0 }
}

layer {
  name: "res3_norm"
  type: "Normalize"
  bottom: "res3_2x"
  top: "res3_norm"
  norm_param {
    across_spatial: false
    scale_filler {
      type: "constant"
      value: 40  #1120: 20-->40, since its channel is only 256, so need 80?
    }
    channel_shared: false
  }
}

layer {
   name: "res3_proposal"
   type: "Convolution"
   bottom: "res3_norm"
   top: "res3_proposal"
	param {
		lr_mult: 1.0
	}
	param {
		lr_mult: 2.0
	}
   convolution_param{
	   num_output: 512
	   kernel_size: 3
	   pad: 1
	   stride: 1
	   weight_filler {
		 type: "gaussian"
		 std: 0.01
	   }
	   bias_filler {
		 type: "constant"
		 value: 0
	   }
   }
}

layer {
    bottom: "res2_proposal"
    bottom: "res3_proposal"
    top: "conv_proposal_res23"
    name: "conv_proposal_res23"
    type: "Concat"
    concat_param {
	axis: 1
    }
}

layer {
   name: "relu_proposal_res23"
   type: "ReLU"
   bottom: "conv_proposal_res23"
   top: "conv_proposal_res23"
}

layer {
   name: "proposal_cls_score_res23"
   type: "Convolution"
   bottom: "conv_proposal_res23"
   top: "proposal_cls_score_res23"
	param {
		lr_mult: 1.0
	}
	param {
		lr_mult: 2.0
	}
   convolution_param{
	   num_output: 12
	   kernel_size: 1
	   pad: 0
	   stride: 1
	   weight_filler {
		 type: "gaussian"
		 std: 0.01
	   }
	   bias_filler {
		 type: "constant"
		 value: 0
	   }
   }
}

layer {
   name: "proposal_bbox_pred_res23"
   type: "Convolution"
   bottom: "conv_proposal_res23"
   top: "proposal_bbox_pred_res23"
	param {
		lr_mult: 1.0
	}
	param {
		lr_mult: 2.0
	}
   convolution_param{
	   num_output: 24
	   kernel_size: 1
	   pad: 0
	   stride: 1
	   weight_filler {
		 type: "gaussian"
		 std: 0.01
	   }
	   bias_filler {
		 type: "constant"
		 value: 0
	   }
   }
}
# ========= end of res3 prediction =================

layer {
    bottom: "res3b3"
    top: "res4a_branch1"
    name: "res4a_branch1"
    type: "Convolution"
    convolution_param {
        num_output: 1024
        kernel_size: 1
        pad: 0
        stride: 2
        bias_term: false
    }
    param {
        lr_mult: 1.0
    }
}

layer {
    bottom: "res4a_branch1"
    top: "res4a_branch1"
    name: "bn4a_branch1"
    type: "BatchNorm"
    batch_norm_param {
        use_global_stats: true
    }
    param {
        lr_mult: 0.0
        decay_mult: 0.0
    }
    param {
        lr_mult: 0.0
        decay_mult: 0.0
    }
    param {
        lr_mult: 0.0
        decay_mult: 0.0
    }
}

layer {
    bottom: "res4a_branch1"
    top: "res4a_branch1"
    name: "scale4a_branch1"
    type: "Scale"
    scale_param {
        bias_term: true
    }
    param {
        lr_mult: 0.0
        decay_mult: 0.0
    }
    param {
        lr_mult: 0.0
        decay_mult: 0.0
    }
}

layer {
    bottom: "res3b3"
    top: "res4a_branch2a"
    name: "res4a_branch2a"
    type: "Convolution"
    convolution_param {
        num_output: 256
        kernel_size: 1
        pad: 0
        stride: 2
        bias_term: false
    }
    param {
        lr_mult: 1.0
    }
}

layer {
    bottom: "res4a_branch2a"
    top: "res4a_branch2a"
    name: "bn4a_branch2a"
    type: "BatchNorm"
    batch_norm_param {
        use_global_stats: true
    }
    param {
        lr_mult: 0.0
        decay_mult: 0.0
    }
    param {
        lr_mult: 0.0
        decay_mult: 0.0
    }
    param {
        lr_mult: 0.0
        decay_mult: 0.0
    }
}

layer {
    bottom: "res4a_branch2a"
    top: "res4a_branch2a"
    name: "scale4a_branch2a"
    type: "Scale"
    scale_param {
        bias_term: true
    }
    param {
        lr_mult: 0.0
        decay_mult: 0.0
    }
    param {
        lr_mult: 0.0
        decay_mult: 0.0
    }
}

layer {
    top: "res4a_branch2a"
    bottom: "res4a_branch2a"
    name: "res4a_branch2a_relu"
    type: "ReLU"
}

layer {
    bottom: "res4a_branch2a"
    top: "res4a_branch2b"
    name: "res4a_branch2b"
    type: "Convolution"
    convolution_param {
        num_output: 256
        kernel_size: 3
        pad: 1
        stride: 1
        bias_term: false
    }
    param {
        lr_mult: 1.0
    }
}

layer {
    bottom: "res4a_branch2b"
    top: "res4a_branch2b"
    name: "bn4a_branch2b"
    type: "BatchNorm"
    batch_norm_param {
        use_global_stats: true
    }
    param {
        lr_mult: 0.0
        decay_mult: 0.0
    }
    param {
        lr_mult: 0.0
        decay_mult: 0.0
    }
    param {
        lr_mult: 0.0
        decay_mult: 0.0
    }
}

layer {
    bottom: "res4a_branch2b"
    top: "res4a_branch2b"
    name: "scale4a_branch2b"
    type: "Scale"
    scale_param {
        bias_term: true
    }
    param {
        lr_mult: 0.0
        decay_mult: 0.0
    }
    param {
        lr_mult: 0.0
        decay_mult: 0.0
    }
}

layer {
    top: "res4a_branch2b"
    bottom: "res4a_branch2b"
    name: "res4a_branch2b_relu"
    type: "ReLU"
}

layer {
    bottom: "res4a_branch2b"
    top: "res4a_branch2c"
    name: "res4a_branch2c"
    type: "Convolution"
    convolution_param {
        num_output: 1024
        kernel_size: 1
        pad: 0
        stride: 1
        bias_term: false
    }
    param {
        lr_mult: 1.0
    }
}

layer {
    bottom: "res4a_branch2c"
    top: "res4a_branch2c"
    name: "bn4a_branch2c"
    type: "BatchNorm"
    batch_norm_param {
        use_global_stats: true
    }
    param {
        lr_mult: 0.0
        decay_mult: 0.0
    }
    param {
        lr_mult: 0.0
        decay_mult: 0.0
    }
    param {
        lr_mult: 0.0
        decay_mult: 0.0
    }
}

layer {
    bottom: "res4a_branch2c"
    top: "res4a_branch2c"
    name: "scale4a_branch2c"
    type: "Scale"
    scale_param {
        bias_term: true
    }
    param {
        lr_mult: 0.0
        decay_mult: 0.0
    }
    param {
        lr_mult: 0.0
        decay_mult: 0.0
    }
}

layer {
    bottom: "res4a_branch1"
    bottom: "res4a_branch2c"
    top: "res4a"
    name: "res4a"
    type: "Eltwise"
}

layer {
    bottom: "res4a"
    top: "res4a"
    name: "res4a_relu"
    type: "ReLU"
}

layer {
    bottom: "res4a"
    top: "res4b1_branch2a"
    name: "res4b1_branch2a"
    type: "Convolution"
    convolution_param {
        num_output: 256
        kernel_size: 1
        pad: 0
        stride: 1
        bias_term: false
    }
    param {
        lr_mult: 1.0
    }
}

layer {
    bottom: "res4b1_branch2a"
    top: "res4b1_branch2a"
    name: "bn4b1_branch2a"
    type: "BatchNorm"
    batch_norm_param {
        use_global_stats: true
    }
    param {
        lr_mult: 0.0
        decay_mult: 0.0
    }
    param {
        lr_mult: 0.0
        decay_mult: 0.0
    }
    param {
        lr_mult: 0.0
        decay_mult: 0.0
    }
}

layer {
    bottom: "res4b1_branch2a"
    top: "res4b1_branch2a"
    name: "scale4b1_branch2a"
    type: "Scale"
    scale_param {
        bias_term: true
    }
    param {
        lr_mult: 0.0
        decay_mult: 0.0
    }
    param {
        lr_mult: 0.0
        decay_mult: 0.0
    }
}

layer {
    top: "res4b1_branch2a"
    bottom: "res4b1_branch2a"
    name: "res4b1_branch2a_relu"
    type: "ReLU"
}

layer {
    bottom: "res4b1_branch2a"
    top: "res4b1_branch2b"
    name: "res4b1_branch2b"
    type: "Convolution"
    convolution_param {
        num_output: 256
        kernel_size: 3
        pad: 1
        stride: 1
        bias_term: false
    }
    param {
        lr_mult: 1.0
    }
}

layer {
    bottom: "res4b1_branch2b"
    top: "res4b1_branch2b"
    name: "bn4b1_branch2b"
    type: "BatchNorm"
    batch_norm_param {
        use_global_stats: true
    }
    param {
        lr_mult: 0.0
        decay_mult: 0.0
    }
    param {
        lr_mult: 0.0
        decay_mult: 0.0
    }
    param {
        lr_mult: 0.0
        decay_mult: 0.0
    }
}

layer {
    bottom: "res4b1_branch2b"
    top: "res4b1_branch2b"
    name: "scale4b1_branch2b"
    type: "Scale"
    scale_param {
        bias_term: true
    }
    param {
        lr_mult: 0.0
        decay_mult: 0.0
    }
    param {
        lr_mult: 0.0
        decay_mult: 0.0
    }
}

layer {
    top: "res4b1_branch2b"
    bottom: "res4b1_branch2b"
    name: "res4b1_branch2b_relu"
    type: "ReLU"
}

layer {
    bottom: "res4b1_branch2b"
    top: "res4b1_branch2c"
    name: "res4b1_branch2c"
    type: "Convolution"
    convolution_param {
        num_output: 1024
        kernel_size: 1
        pad: 0
        stride: 1
        bias_term: false
    }
    param {
        lr_mult: 1.0
    }
}

layer {
    bottom: "res4b1_branch2c"
    top: "res4b1_branch2c"
    name: "bn4b1_branch2c"
    type: "BatchNorm"
    batch_norm_param {
        use_global_stats: true
    }
    param {
        lr_mult: 0.0
        decay_mult: 0.0
    }
    param {
        lr_mult: 0.0
        decay_mult: 0.0
    }
    param {
        lr_mult: 0.0
        decay_mult: 0.0
    }
}

layer {
    bottom: "res4b1_branch2c"
    top: "res4b1_branch2c"
    name: "scale4b1_branch2c"
    type: "Scale"
    scale_param {
        bias_term: true
    }
    param {
        lr_mult: 0.0
        decay_mult: 0.0
    }
    param {
        lr_mult: 0.0
        decay_mult: 0.0
    }
}

layer {
    bottom: "res4a"
    bottom: "res4b1_branch2c"
    top: "res4b1"
    name: "res4b1"
    type: "Eltwise"
}

layer {
    bottom: "res4b1"
    top: "res4b1"
    name: "res4b1_relu"
    type: "ReLU"
}

layer {
    bottom: "res4b1"
    top: "res4b2_branch2a"
    name: "res4b2_branch2a"
    type: "Convolution"
    convolution_param {
        num_output: 256
        kernel_size: 1
        pad: 0
        stride: 1
        bias_term: false
    }
    param {
        lr_mult: 1.0
    }
}

layer {
    bottom: "res4b2_branch2a"
    top: "res4b2_branch2a"
    name: "bn4b2_branch2a"
    type: "BatchNorm"
    batch_norm_param {
        use_global_stats: true
    }
    param {
        lr_mult: 0.0
        decay_mult: 0.0
    }
    param {
        lr_mult: 0.0
        decay_mult: 0.0
    }
    param {
        lr_mult: 0.0
        decay_mult: 0.0
    }
}

layer {
    bottom: "res4b2_branch2a"
    top: "res4b2_branch2a"
    name: "scale4b2_branch2a"
    type: "Scale"
    scale_param {
        bias_term: true
    }
    param {
        lr_mult: 0.0
        decay_mult: 0.0
    }
    param {
        lr_mult: 0.0
        decay_mult: 0.0
    }
}

layer {
    top: "res4b2_branch2a"
    bottom: "res4b2_branch2a"
    name: "res4b2_branch2a_relu"
    type: "ReLU"
}

layer {
    bottom: "res4b2_branch2a"
    top: "res4b2_branch2b"
    name: "res4b2_branch2b"
    type: "Convolution"
    convolution_param {
        num_output: 256
        kernel_size: 3
        pad: 1
        stride: 1
        bias_term: false
    }
    param {
        lr_mult: 1.0
    }
}

layer {
    bottom: "res4b2_branch2b"
    top: "res4b2_branch2b"
    name: "bn4b2_branch2b"
    type: "BatchNorm"
    batch_norm_param {
        use_global_stats: true
    }
    param {
        lr_mult: 0.0
        decay_mult: 0.0
    }
    param {
        lr_mult: 0.0
        decay_mult: 0.0
    }
    param {
        lr_mult: 0.0
        decay_mult: 0.0
    }
}

layer {
    bottom: "res4b2_branch2b"
    top: "res4b2_branch2b"
    name: "scale4b2_branch2b"
    type: "Scale"
    scale_param {
        bias_term: true
    }
    param {
        lr_mult: 0.0
        decay_mult: 0.0
    }
    param {
        lr_mult: 0.0
        decay_mult: 0.0
    }
}

layer {
    top: "res4b2_branch2b"
    bottom: "res4b2_branch2b"
    name: "res4b2_branch2b_relu"
    type: "ReLU"
}

layer {
    bottom: "res4b2_branch2b"
    top: "res4b2_branch2c"
    name: "res4b2_branch2c"
    type: "Convolution"
    convolution_param {
        num_output: 1024
        kernel_size: 1
        pad: 0
        stride: 1
        bias_term: false
    }
    param {
        lr_mult: 1.0
    }
}

layer {
    bottom: "res4b2_branch2c"
    top: "res4b2_branch2c"
    name: "bn4b2_branch2c"
    type: "BatchNorm"
    batch_norm_param {
        use_global_stats: true
    }
    param {
        lr_mult: 0.0
        decay_mult: 0.0
    }
    param {
        lr_mult: 0.0
        decay_mult: 0.0
    }
    param {
        lr_mult: 0.0
        decay_mult: 0.0
    }
}

layer {
    bottom: "res4b2_branch2c"
    top: "res4b2_branch2c"
    name: "scale4b2_branch2c"
    type: "Scale"
    scale_param {
        bias_term: true
    }
    param {
        lr_mult: 0.0
        decay_mult: 0.0
    }
    param {
        lr_mult: 0.0
        decay_mult: 0.0
    }
}

layer {
    bottom: "res4b1"
    bottom: "res4b2_branch2c"
    top: "res4b2"
    name: "res4b2"
    type: "Eltwise"
}

layer {
    bottom: "res4b2"
    top: "res4b2"
    name: "res4b2_relu"
    type: "ReLU"
}

layer {
    bottom: "res4b2"
    top: "res4b3_branch2a"
    name: "res4b3_branch2a"
    type: "Convolution"
    convolution_param {
        num_output: 256
        kernel_size: 1
        pad: 0
        stride: 1
        bias_term: false
    }
    param {
        lr_mult: 1.0
    }
}

layer {
    bottom: "res4b3_branch2a"
    top: "res4b3_branch2a"
    name: "bn4b3_branch2a"
    type: "BatchNorm"
    batch_norm_param {
        use_global_stats: true
    }
    param {
        lr_mult: 0.0
        decay_mult: 0.0
    }
    param {
        lr_mult: 0.0
        decay_mult: 0.0
    }
    param {
        lr_mult: 0.0
        decay_mult: 0.0
    }
}

layer {
    bottom: "res4b3_branch2a"
    top: "res4b3_branch2a"
    name: "scale4b3_branch2a"
    type: "Scale"
    scale_param {
        bias_term: true
    }
    param {
        lr_mult: 0.0
        decay_mult: 0.0
    }
    param {
        lr_mult: 0.0
        decay_mult: 0.0
    }
}

layer {
    top: "res4b3_branch2a"
    bottom: "res4b3_branch2a"
    name: "res4b3_branch2a_relu"
    type: "ReLU"
}

layer {
    bottom: "res4b3_branch2a"
    top: "res4b3_branch2b"
    name: "res4b3_branch2b"
    type: "Convolution"
    convolution_param {
        num_output: 256
        kernel_size: 3
        pad: 1
        stride: 1
        bias_term: false
    }
    param {
        lr_mult: 1.0
    }
}

layer {
    bottom: "res4b3_branch2b"
    top: "res4b3_branch2b"
    name: "bn4b3_branch2b"
    type: "BatchNorm"
    batch_norm_param {
        use_global_stats: true
    }
    param {
        lr_mult: 0.0
        decay_mult: 0.0
    }
    param {
        lr_mult: 0.0
        decay_mult: 0.0
    }
    param {
        lr_mult: 0.0
        decay_mult: 0.0
    }
}

layer {
    bottom: "res4b3_branch2b"
    top: "res4b3_branch2b"
    name: "scale4b3_branch2b"
    type: "Scale"
    scale_param {
        bias_term: true
    }
    param {
        lr_mult: 0.0
        decay_mult: 0.0
    }
    param {
        lr_mult: 0.0
        decay_mult: 0.0
    }
}

layer {
    top: "res4b3_branch2b"
    bottom: "res4b3_branch2b"
    name: "res4b3_branch2b_relu"
    type: "ReLU"
}

layer {
    bottom: "res4b3_branch2b"
    top: "res4b3_branch2c"
    name: "res4b3_branch2c"
    type: "Convolution"
    convolution_param {
        num_output: 1024
        kernel_size: 1
        pad: 0
        stride: 1
        bias_term: false
    }
    param {
        lr_mult: 1.0
    }
}

layer {
    bottom: "res4b3_branch2c"
    top: "res4b3_branch2c"
    name: "bn4b3_branch2c"
    type: "BatchNorm"
    batch_norm_param {
        use_global_stats: true
    }
    param {
        lr_mult: 0.0
        decay_mult: 0.0
    }
    param {
        lr_mult: 0.0
        decay_mult: 0.0
    }
    param {
        lr_mult: 0.0
        decay_mult: 0.0
    }
}

layer {
    bottom: "res4b3_branch2c"
    top: "res4b3_branch2c"
    name: "scale4b3_branch2c"
    type: "Scale"
    scale_param {
        bias_term: true
    }
    param {
        lr_mult: 0.0
        decay_mult: 0.0
    }
    param {
        lr_mult: 0.0
        decay_mult: 0.0
    }
}

layer {
    bottom: "res4b2"
    bottom: "res4b3_branch2c"
    top: "res4b3"
    name: "res4b3"
    type: "Eltwise"
}

layer {
    bottom: "res4b3"
    top: "res4b3"
    name: "res4b3_relu"
    type: "ReLU"
}

layer {
    bottom: "res4b3"
    top: "res4b4_branch2a"
    name: "res4b4_branch2a"
    type: "Convolution"
    convolution_param {
        num_output: 256
        kernel_size: 1
        pad: 0
        stride: 1
        bias_term: false
    }
    param {
        lr_mult: 1.0
    }
}

layer {
    bottom: "res4b4_branch2a"
    top: "res4b4_branch2a"
    name: "bn4b4_branch2a"
    type: "BatchNorm"
    batch_norm_param {
        use_global_stats: true
    }
    param {
        lr_mult: 0.0
        decay_mult: 0.0
    }
    param {
        lr_mult: 0.0
        decay_mult: 0.0
    }
    param {
        lr_mult: 0.0
        decay_mult: 0.0
    }
}

layer {
    bottom: "res4b4_branch2a"
    top: "res4b4_branch2a"
    name: "scale4b4_branch2a"
    type: "Scale"
    scale_param {
        bias_term: true
    }
    param {
        lr_mult: 0.0
        decay_mult: 0.0
    }
    param {
        lr_mult: 0.0
        decay_mult: 0.0
    }
}

layer {
    top: "res4b4_branch2a"
    bottom: "res4b4_branch2a"
    name: "res4b4_branch2a_relu"
    type: "ReLU"
}

layer {
    bottom: "res4b4_branch2a"
    top: "res4b4_branch2b"
    name: "res4b4_branch2b"
    type: "Convolution"
    convolution_param {
        num_output: 256
        kernel_size: 3
        pad: 1
        stride: 1
        bias_term: false
    }
    param {
        lr_mult: 1.0
    }
}

layer {
    bottom: "res4b4_branch2b"
    top: "res4b4_branch2b"
    name: "bn4b4_branch2b"
    type: "BatchNorm"
    batch_norm_param {
        use_global_stats: true
    }
    param {
        lr_mult: 0.0
        decay_mult: 0.0
    }
    param {
        lr_mult: 0.0
        decay_mult: 0.0
    }
    param {
        lr_mult: 0.0
        decay_mult: 0.0
    }
}

layer {
    bottom: "res4b4_branch2b"
    top: "res4b4_branch2b"
    name: "scale4b4_branch2b"
    type: "Scale"
    scale_param {
        bias_term: true
    }
    param {
        lr_mult: 0.0
        decay_mult: 0.0
    }
    param {
        lr_mult: 0.0
        decay_mult: 0.0
    }
}

layer {
    top: "res4b4_branch2b"
    bottom: "res4b4_branch2b"
    name: "res4b4_branch2b_relu"
    type: "ReLU"
}

layer {
    bottom: "res4b4_branch2b"
    top: "res4b4_branch2c"
    name: "res4b4_branch2c"
    type: "Convolution"
    convolution_param {
        num_output: 1024
        kernel_size: 1
        pad: 0
        stride: 1
        bias_term: false
    }
    param {
        lr_mult: 1.0
    }
}

layer {
    bottom: "res4b4_branch2c"
    top: "res4b4_branch2c"
    name: "bn4b4_branch2c"
    type: "BatchNorm"
    batch_norm_param {
        use_global_stats: true
    }
    param {
        lr_mult: 0.0
        decay_mult: 0.0
    }
    param {
        lr_mult: 0.0
        decay_mult: 0.0
    }
    param {
        lr_mult: 0.0
        decay_mult: 0.0
    }
}

layer {
    bottom: "res4b4_branch2c"
    top: "res4b4_branch2c"
    name: "scale4b4_branch2c"
    type: "Scale"
    scale_param {
        bias_term: true
    }
    param {
        lr_mult: 0.0
        decay_mult: 0.0
    }
    param {
        lr_mult: 0.0
        decay_mult: 0.0
    }
}

layer {
    bottom: "res4b3"
    bottom: "res4b4_branch2c"
    top: "res4b4"
    name: "res4b4"
    type: "Eltwise"
}

layer {
    bottom: "res4b4"
    top: "res4b4"
    name: "res4b4_relu"
    type: "ReLU"
}

layer {
    bottom: "res4b4"
    top: "res4b5_branch2a"
    name: "res4b5_branch2a"
    type: "Convolution"
    convolution_param {
        num_output: 256
        kernel_size: 1
        pad: 0
        stride: 1
        bias_term: false
    }
    param {
        lr_mult: 1.0
    }
}

layer {
    bottom: "res4b5_branch2a"
    top: "res4b5_branch2a"
    name: "bn4b5_branch2a"
    type: "BatchNorm"
    batch_norm_param {
        use_global_stats: true
    }
    param {
        lr_mult: 0.0
        decay_mult: 0.0
    }
    param {
        lr_mult: 0.0
        decay_mult: 0.0
    }
    param {
        lr_mult: 0.0
        decay_mult: 0.0
    }
}

layer {
    bottom: "res4b5_branch2a"
    top: "res4b5_branch2a"
    name: "scale4b5_branch2a"
    type: "Scale"
    scale_param {
        bias_term: true
    }
    param {
        lr_mult: 0.0
        decay_mult: 0.0
    }
    param {
        lr_mult: 0.0
        decay_mult: 0.0
    }
}

layer {
    top: "res4b5_branch2a"
    bottom: "res4b5_branch2a"
    name: "res4b5_branch2a_relu"
    type: "ReLU"
}

layer {
    bottom: "res4b5_branch2a"
    top: "res4b5_branch2b"
    name: "res4b5_branch2b"
    type: "Convolution"
    convolution_param {
        num_output: 256
        kernel_size: 3
        pad: 1
        stride: 1
        bias_term: false
    }
    param {
        lr_mult: 1.0
    }
}

layer {
    bottom: "res4b5_branch2b"
    top: "res4b5_branch2b"
    name: "bn4b5_branch2b"
    type: "BatchNorm"
    batch_norm_param {
        use_global_stats: true
    }
    param {
        lr_mult: 0.0
        decay_mult: 0.0
    }
    param {
        lr_mult: 0.0
        decay_mult: 0.0
    }
    param {
        lr_mult: 0.0
        decay_mult: 0.0
    }
}

layer {
    bottom: "res4b5_branch2b"
    top: "res4b5_branch2b"
    name: "scale4b5_branch2b"
    type: "Scale"
    scale_param {
        bias_term: true
    }
    param {
        lr_mult: 0.0
        decay_mult: 0.0
    }
    param {
        lr_mult: 0.0
        decay_mult: 0.0
    }
}

layer {
    top: "res4b5_branch2b"
    bottom: "res4b5_branch2b"
    name: "res4b5_branch2b_relu"
    type: "ReLU"
}

layer {
    bottom: "res4b5_branch2b"
    top: "res4b5_branch2c"
    name: "res4b5_branch2c"
    type: "Convolution"
    convolution_param {
        num_output: 1024
        kernel_size: 1
        pad: 0
        stride: 1
        bias_term: false
    }
    param {
        lr_mult: 1.0
    }
}

layer {
    bottom: "res4b5_branch2c"
    top: "res4b5_branch2c"
    name: "bn4b5_branch2c"
    type: "BatchNorm"
    batch_norm_param {
        use_global_stats: true
    }
    param {
        lr_mult: 0.0
        decay_mult: 0.0
    }
    param {
        lr_mult: 0.0
        decay_mult: 0.0
    }
    param {
        lr_mult: 0.0
        decay_mult: 0.0
    }
}

layer {
    bottom: "res4b5_branch2c"
    top: "res4b5_branch2c"
    name: "scale4b5_branch2c"
    type: "Scale"
    scale_param {
        bias_term: true
    }
    param {
        lr_mult: 0.0
        decay_mult: 0.0
    }
    param {
        lr_mult: 0.0
        decay_mult: 0.0
    }
}

layer {
    bottom: "res4b4"
    bottom: "res4b5_branch2c"
    top: "res4b5"
    name: "res4b5"
    type: "Eltwise"
}

layer {
    bottom: "res4b5"
    top: "res4b5"
    name: "res4b5_relu"
    type: "ReLU"
}

layer {
    bottom: "res4b5"
    top: "res4b6_branch2a"
    name: "res4b6_branch2a"
    type: "Convolution"
    convolution_param {
        num_output: 256
        kernel_size: 1
        pad: 0
        stride: 1
        bias_term: false
    }
    param {
        lr_mult: 1.0
    }
}

layer {
    bottom: "res4b6_branch2a"
    top: "res4b6_branch2a"
    name: "bn4b6_branch2a"
    type: "BatchNorm"
    batch_norm_param {
        use_global_stats: true
    }
    param {
        lr_mult: 0.0
        decay_mult: 0.0
    }
    param {
        lr_mult: 0.0
        decay_mult: 0.0
    }
    param {
        lr_mult: 0.0
        decay_mult: 0.0
    }
}

layer {
    bottom: "res4b6_branch2a"
    top: "res4b6_branch2a"
    name: "scale4b6_branch2a"
    type: "Scale"
    scale_param {
        bias_term: true
    }
    param {
        lr_mult: 0.0
        decay_mult: 0.0
    }
    param {
        lr_mult: 0.0
        decay_mult: 0.0
    }
}

layer {
    top: "res4b6_branch2a"
    bottom: "res4b6_branch2a"
    name: "res4b6_branch2a_relu"
    type: "ReLU"
}

layer {
    bottom: "res4b6_branch2a"
    top: "res4b6_branch2b"
    name: "res4b6_branch2b"
    type: "Convolution"
    convolution_param {
        num_output: 256
        kernel_size: 3
        pad: 1
        stride: 1
        bias_term: false
    }
    param {
        lr_mult: 1.0
    }
}

layer {
    bottom: "res4b6_branch2b"
    top: "res4b6_branch2b"
    name: "bn4b6_branch2b"
    type: "BatchNorm"
    batch_norm_param {
        use_global_stats: true
    }
    param {
        lr_mult: 0.0
        decay_mult: 0.0
    }
    param {
        lr_mult: 0.0
        decay_mult: 0.0
    }
    param {
        lr_mult: 0.0
        decay_mult: 0.0
    }
}

layer {
    bottom: "res4b6_branch2b"
    top: "res4b6_branch2b"
    name: "scale4b6_branch2b"
    type: "Scale"
    scale_param {
        bias_term: true
    }
    param {
        lr_mult: 0.0
        decay_mult: 0.0
    }
    param {
        lr_mult: 0.0
        decay_mult: 0.0
    }
}

layer {
    top: "res4b6_branch2b"
    bottom: "res4b6_branch2b"
    name: "res4b6_branch2b_relu"
    type: "ReLU"
}

layer {
    bottom: "res4b6_branch2b"
    top: "res4b6_branch2c"
    name: "res4b6_branch2c"
    type: "Convolution"
    convolution_param {
        num_output: 1024
        kernel_size: 1
        pad: 0
        stride: 1
        bias_term: false
    }
    param {
        lr_mult: 1.0
    }
}

layer {
    bottom: "res4b6_branch2c"
    top: "res4b6_branch2c"
    name: "bn4b6_branch2c"
    type: "BatchNorm"
    batch_norm_param {
        use_global_stats: true
    }
    param {
        lr_mult: 0.0
        decay_mult: 0.0
    }
    param {
        lr_mult: 0.0
        decay_mult: 0.0
    }
    param {
        lr_mult: 0.0
        decay_mult: 0.0
    }
}

layer {
    bottom: "res4b6_branch2c"
    top: "res4b6_branch2c"
    name: "scale4b6_branch2c"
    type: "Scale"
    scale_param {
        bias_term: true
    }
    param {
        lr_mult: 0.0
        decay_mult: 0.0
    }
    param {
        lr_mult: 0.0
        decay_mult: 0.0
    }
}

layer {
    bottom: "res4b5"
    bottom: "res4b6_branch2c"
    top: "res4b6"
    name: "res4b6"
    type: "Eltwise"
}

layer {
    bottom: "res4b6"
    top: "res4b6"
    name: "res4b6_relu"
    type: "ReLU"
}

layer {
    bottom: "res4b6"
    top: "res4b7_branch2a"
    name: "res4b7_branch2a"
    type: "Convolution"
    convolution_param {
        num_output: 256
        kernel_size: 1
        pad: 0
        stride: 1
        bias_term: false
    }
    param {
        lr_mult: 1.0
    }
}

layer {
    bottom: "res4b7_branch2a"
    top: "res4b7_branch2a"
    name: "bn4b7_branch2a"
    type: "BatchNorm"
    batch_norm_param {
        use_global_stats: true
    }
    param {
        lr_mult: 0.0
        decay_mult: 0.0
    }
    param {
        lr_mult: 0.0
        decay_mult: 0.0
    }
    param {
        lr_mult: 0.0
        decay_mult: 0.0
    }
}

layer {
    bottom: "res4b7_branch2a"
    top: "res4b7_branch2a"
    name: "scale4b7_branch2a"
    type: "Scale"
    scale_param {
        bias_term: true
    }
    param {
        lr_mult: 0.0
        decay_mult: 0.0
    }
    param {
        lr_mult: 0.0
        decay_mult: 0.0
    }
}

layer {
    top: "res4b7_branch2a"
    bottom: "res4b7_branch2a"
    name: "res4b7_branch2a_relu"
    type: "ReLU"
}

layer {
    bottom: "res4b7_branch2a"
    top: "res4b7_branch2b"
    name: "res4b7_branch2b"
    type: "Convolution"
    convolution_param {
        num_output: 256
        kernel_size: 3
        pad: 1
        stride: 1
        bias_term: false
    }
    param {
        lr_mult: 1.0
    }
}

layer {
    bottom: "res4b7_branch2b"
    top: "res4b7_branch2b"
    name: "bn4b7_branch2b"
    type: "BatchNorm"
    batch_norm_param {
        use_global_stats: true
    }
    param {
        lr_mult: 0.0
        decay_mult: 0.0
    }
    param {
        lr_mult: 0.0
        decay_mult: 0.0
    }
    param {
        lr_mult: 0.0
        decay_mult: 0.0
    }
}

layer {
    bottom: "res4b7_branch2b"
    top: "res4b7_branch2b"
    name: "scale4b7_branch2b"
    type: "Scale"
    scale_param {
        bias_term: true
    }
    param {
        lr_mult: 0.0
        decay_mult: 0.0
    }
    param {
        lr_mult: 0.0
        decay_mult: 0.0
    }
}

layer {
    top: "res4b7_branch2b"
    bottom: "res4b7_branch2b"
    name: "res4b7_branch2b_relu"
    type: "ReLU"
}

layer {
    bottom: "res4b7_branch2b"
    top: "res4b7_branch2c"
    name: "res4b7_branch2c"
    type: "Convolution"
    convolution_param {
        num_output: 1024
        kernel_size: 1
        pad: 0
        stride: 1
        bias_term: false
    }
    param {
        lr_mult: 1.0
    }
}

layer {
    bottom: "res4b7_branch2c"
    top: "res4b7_branch2c"
    name: "bn4b7_branch2c"
    type: "BatchNorm"
    batch_norm_param {
        use_global_stats: true
    }
    param {
        lr_mult: 0.0
        decay_mult: 0.0
    }
    param {
        lr_mult: 0.0
        decay_mult: 0.0
    }
    param {
        lr_mult: 0.0
        decay_mult: 0.0
    }
}

layer {
    bottom: "res4b7_branch2c"
    top: "res4b7_branch2c"
    name: "scale4b7_branch2c"
    type: "Scale"
    scale_param {
        bias_term: true
    }
    param {
        lr_mult: 0.0
        decay_mult: 0.0
    }
    param {
        lr_mult: 0.0
        decay_mult: 0.0
    }
}

layer {
    bottom: "res4b6"
    bottom: "res4b7_branch2c"
    top: "res4b7"
    name: "res4b7"
    type: "Eltwise"
}

layer {
    bottom: "res4b7"
    top: "res4b7"
    name: "res4b7_relu"
    type: "ReLU"
}

layer {
    bottom: "res4b7"
    top: "res4b8_branch2a"
    name: "res4b8_branch2a"
    type: "Convolution"
    convolution_param {
        num_output: 256
        kernel_size: 1
        pad: 0
        stride: 1
        bias_term: false
    }
    param {
        lr_mult: 1.0
    }
}

layer {
    bottom: "res4b8_branch2a"
    top: "res4b8_branch2a"
    name: "bn4b8_branch2a"
    type: "BatchNorm"
    batch_norm_param {
        use_global_stats: true
    }
    param {
        lr_mult: 0.0
        decay_mult: 0.0
    }
    param {
        lr_mult: 0.0
        decay_mult: 0.0
    }
    param {
        lr_mult: 0.0
        decay_mult: 0.0
    }
}

layer {
    bottom: "res4b8_branch2a"
    top: "res4b8_branch2a"
    name: "scale4b8_branch2a"
    type: "Scale"
    scale_param {
        bias_term: true
    }
    param {
        lr_mult: 0.0
        decay_mult: 0.0
    }
    param {
        lr_mult: 0.0
        decay_mult: 0.0
    }
}

layer {
    top: "res4b8_branch2a"
    bottom: "res4b8_branch2a"
    name: "res4b8_branch2a_relu"
    type: "ReLU"
}

layer {
    bottom: "res4b8_branch2a"
    top: "res4b8_branch2b"
    name: "res4b8_branch2b"
    type: "Convolution"
    convolution_param {
        num_output: 256
        kernel_size: 3
        pad: 1
        stride: 1
        bias_term: false
    }
    param {
        lr_mult: 1.0
    }
}

layer {
    bottom: "res4b8_branch2b"
    top: "res4b8_branch2b"
    name: "bn4b8_branch2b"
    type: "BatchNorm"
    batch_norm_param {
        use_global_stats: true
    }
    param {
        lr_mult: 0.0
        decay_mult: 0.0
    }
    param {
        lr_mult: 0.0
        decay_mult: 0.0
    }
    param {
        lr_mult: 0.0
        decay_mult: 0.0
    }
}

layer {
    bottom: "res4b8_branch2b"
    top: "res4b8_branch2b"
    name: "scale4b8_branch2b"
    type: "Scale"
    scale_param {
        bias_term: true
    }
    param {
        lr_mult: 0.0
        decay_mult: 0.0
    }
    param {
        lr_mult: 0.0
        decay_mult: 0.0
    }
}

layer {
    top: "res4b8_branch2b"
    bottom: "res4b8_branch2b"
    name: "res4b8_branch2b_relu"
    type: "ReLU"
}

layer {
    bottom: "res4b8_branch2b"
    top: "res4b8_branch2c"
    name: "res4b8_branch2c"
    type: "Convolution"
    convolution_param {
        num_output: 1024
        kernel_size: 1
        pad: 0
        stride: 1
        bias_term: false
    }
    param {
        lr_mult: 1.0
    }
}

layer {
    bottom: "res4b8_branch2c"
    top: "res4b8_branch2c"
    name: "bn4b8_branch2c"
    type: "BatchNorm"
    batch_norm_param {
        use_global_stats: true
    }
    param {
        lr_mult: 0.0
        decay_mult: 0.0
    }
    param {
        lr_mult: 0.0
        decay_mult: 0.0
    }
    param {
        lr_mult: 0.0
        decay_mult: 0.0
    }
}

layer {
    bottom: "res4b8_branch2c"
    top: "res4b8_branch2c"
    name: "scale4b8_branch2c"
    type: "Scale"
    scale_param {
        bias_term: true
    }
    param {
        lr_mult: 0.0
        decay_mult: 0.0
    }
    param {
        lr_mult: 0.0
        decay_mult: 0.0
    }
}

layer {
    bottom: "res4b7"
    bottom: "res4b8_branch2c"
    top: "res4b8"
    name: "res4b8"
    type: "Eltwise"
}

layer {
    bottom: "res4b8"
    top: "res4b8"
    name: "res4b8_relu"
    type: "ReLU"
}

layer {
    bottom: "res4b8"
    top: "res4b9_branch2a"
    name: "res4b9_branch2a"
    type: "Convolution"
    convolution_param {
        num_output: 256
        kernel_size: 1
        pad: 0
        stride: 1
        bias_term: false
    }
    param {
        lr_mult: 1.0
    }
}

layer {
    bottom: "res4b9_branch2a"
    top: "res4b9_branch2a"
    name: "bn4b9_branch2a"
    type: "BatchNorm"
    batch_norm_param {
        use_global_stats: true
    }
    param {
        lr_mult: 0.0
        decay_mult: 0.0
    }
    param {
        lr_mult: 0.0
        decay_mult: 0.0
    }
    param {
        lr_mult: 0.0
        decay_mult: 0.0
    }
}

layer {
    bottom: "res4b9_branch2a"
    top: "res4b9_branch2a"
    name: "scale4b9_branch2a"
    type: "Scale"
    scale_param {
        bias_term: true
    }
    param {
        lr_mult: 0.0
        decay_mult: 0.0
    }
    param {
        lr_mult: 0.0
        decay_mult: 0.0
    }
}

layer {
    top: "res4b9_branch2a"
    bottom: "res4b9_branch2a"
    name: "res4b9_branch2a_relu"
    type: "ReLU"
}

layer {
    bottom: "res4b9_branch2a"
    top: "res4b9_branch2b"
    name: "res4b9_branch2b"
    type: "Convolution"
    convolution_param {
        num_output: 256
        kernel_size: 3
        pad: 1
        stride: 1
        bias_term: false
    }
    param {
        lr_mult: 1.0
    }
}

layer {
    bottom: "res4b9_branch2b"
    top: "res4b9_branch2b"
    name: "bn4b9_branch2b"
    type: "BatchNorm"
    batch_norm_param {
        use_global_stats: true
    }
    param {
        lr_mult: 0.0
        decay_mult: 0.0
    }
    param {
        lr_mult: 0.0
        decay_mult: 0.0
    }
    param {
        lr_mult: 0.0
        decay_mult: 0.0
    }
}

layer {
    bottom: "res4b9_branch2b"
    top: "res4b9_branch2b"
    name: "scale4b9_branch2b"
    type: "Scale"
    scale_param {
        bias_term: true
    }
    param {
        lr_mult: 0.0
        decay_mult: 0.0
    }
    param {
        lr_mult: 0.0
        decay_mult: 0.0
    }
}

layer {
    top: "res4b9_branch2b"
    bottom: "res4b9_branch2b"
    name: "res4b9_branch2b_relu"
    type: "ReLU"
}

layer {
    bottom: "res4b9_branch2b"
    top: "res4b9_branch2c"
    name: "res4b9_branch2c"
    type: "Convolution"
    convolution_param {
        num_output: 1024
        kernel_size: 1
        pad: 0
        stride: 1
        bias_term: false
    }
    param {
        lr_mult: 1.0
    }
}

layer {
    bottom: "res4b9_branch2c"
    top: "res4b9_branch2c"
    name: "bn4b9_branch2c"
    type: "BatchNorm"
    batch_norm_param {
        use_global_stats: true
    }
    param {
        lr_mult: 0.0
        decay_mult: 0.0
    }
    param {
        lr_mult: 0.0
        decay_mult: 0.0
    }
    param {
        lr_mult: 0.0
        decay_mult: 0.0
    }
}

layer {
    bottom: "res4b9_branch2c"
    top: "res4b9_branch2c"
    name: "scale4b9_branch2c"
    type: "Scale"
    scale_param {
        bias_term: true
    }
    param {
        lr_mult: 0.0
        decay_mult: 0.0
    }
    param {
        lr_mult: 0.0
        decay_mult: 0.0
    }
}

layer {
    bottom: "res4b8"
    bottom: "res4b9_branch2c"
    top: "res4b9"
    name: "res4b9"
    type: "Eltwise"
}

layer {
    bottom: "res4b9"
    top: "res4b9"
    name: "res4b9_relu"
    type: "ReLU"
}

layer {
    bottom: "res4b9"
    top: "res4b10_branch2a"
    name: "res4b10_branch2a"
    type: "Convolution"
    convolution_param {
        num_output: 256
        kernel_size: 1
        pad: 0
        stride: 1
        bias_term: false
    }
    param {
        lr_mult: 1.0
    }
}

layer {
    bottom: "res4b10_branch2a"
    top: "res4b10_branch2a"
    name: "bn4b10_branch2a"
    type: "BatchNorm"
    batch_norm_param {
        use_global_stats: true
    }
    param {
        lr_mult: 0.0
        decay_mult: 0.0
    }
    param {
        lr_mult: 0.0
        decay_mult: 0.0
    }
    param {
        lr_mult: 0.0
        decay_mult: 0.0
    }
}

layer {
    bottom: "res4b10_branch2a"
    top: "res4b10_branch2a"
    name: "scale4b10_branch2a"
    type: "Scale"
    scale_param {
        bias_term: true
    }
    param {
        lr_mult: 0.0
        decay_mult: 0.0
    }
    param {
        lr_mult: 0.0
        decay_mult: 0.0
    }
}

layer {
    top: "res4b10_branch2a"
    bottom: "res4b10_branch2a"
    name: "res4b10_branch2a_relu"
    type: "ReLU"
}

layer {
    bottom: "res4b10_branch2a"
    top: "res4b10_branch2b"
    name: "res4b10_branch2b"
    type: "Convolution"
    convolution_param {
        num_output: 256
        kernel_size: 3
        pad: 1
        stride: 1
        bias_term: false
    }
    param {
        lr_mult: 1.0
    }
}

layer {
    bottom: "res4b10_branch2b"
    top: "res4b10_branch2b"
    name: "bn4b10_branch2b"
    type: "BatchNorm"
    batch_norm_param {
        use_global_stats: true
    }
    param {
        lr_mult: 0.0
        decay_mult: 0.0
    }
    param {
        lr_mult: 0.0
        decay_mult: 0.0
    }
    param {
        lr_mult: 0.0
        decay_mult: 0.0
    }
}

layer {
    bottom: "res4b10_branch2b"
    top: "res4b10_branch2b"
    name: "scale4b10_branch2b"
    type: "Scale"
    scale_param {
        bias_term: true
    }
    param {
        lr_mult: 0.0
        decay_mult: 0.0
    }
    param {
        lr_mult: 0.0
        decay_mult: 0.0
    }
}

layer {
    top: "res4b10_branch2b"
    bottom: "res4b10_branch2b"
    name: "res4b10_branch2b_relu"
    type: "ReLU"
}

layer {
    bottom: "res4b10_branch2b"
    top: "res4b10_branch2c"
    name: "res4b10_branch2c"
    type: "Convolution"
    convolution_param {
        num_output: 1024
        kernel_size: 1
        pad: 0
        stride: 1
        bias_term: false
    }
    param {
        lr_mult: 1.0
    }
}

layer {
    bottom: "res4b10_branch2c"
    top: "res4b10_branch2c"
    name: "bn4b10_branch2c"
    type: "BatchNorm"
    batch_norm_param {
        use_global_stats: true
    }
    param {
        lr_mult: 0.0
        decay_mult: 0.0
    }
    param {
        lr_mult: 0.0
        decay_mult: 0.0
    }
    param {
        lr_mult: 0.0
        decay_mult: 0.0
    }
}

layer {
    bottom: "res4b10_branch2c"
    top: "res4b10_branch2c"
    name: "scale4b10_branch2c"
    type: "Scale"
    scale_param {
        bias_term: true
    }
    param {
        lr_mult: 0.0
        decay_mult: 0.0
    }
    param {
        lr_mult: 0.0
        decay_mult: 0.0
    }
}

layer {
    bottom: "res4b9"
    bottom: "res4b10_branch2c"
    top: "res4b10"
    name: "res4b10"
    type: "Eltwise"
}

layer {
    bottom: "res4b10"
    top: "res4b10"
    name: "res4b10_relu"
    type: "ReLU"
}

layer {
    bottom: "res4b10"
    top: "res4b11_branch2a"
    name: "res4b11_branch2a"
    type: "Convolution"
    convolution_param {
        num_output: 256
        kernel_size: 1
        pad: 0
        stride: 1
        bias_term: false
    }
    param {
        lr_mult: 1.0
    }
}

layer {
    bottom: "res4b11_branch2a"
    top: "res4b11_branch2a"
    name: "bn4b11_branch2a"
    type: "BatchNorm"
    batch_norm_param {
        use_global_stats: true
    }
    param {
        lr_mult: 0.0
        decay_mult: 0.0
    }
    param {
        lr_mult: 0.0
        decay_mult: 0.0
    }
    param {
        lr_mult: 0.0
        decay_mult: 0.0
    }
}

layer {
    bottom: "res4b11_branch2a"
    top: "res4b11_branch2a"
    name: "scale4b11_branch2a"
    type: "Scale"
    scale_param {
        bias_term: true
    }
    param {
        lr_mult: 0.0
        decay_mult: 0.0
    }
    param {
        lr_mult: 0.0
        decay_mult: 0.0
    }
}

layer {
    top: "res4b11_branch2a"
    bottom: "res4b11_branch2a"
    name: "res4b11_branch2a_relu"
    type: "ReLU"
}

layer {
    bottom: "res4b11_branch2a"
    top: "res4b11_branch2b"
    name: "res4b11_branch2b"
    type: "Convolution"
    convolution_param {
        num_output: 256
        kernel_size: 3
        pad: 1
        stride: 1
        bias_term: false
    }
    param {
        lr_mult: 1.0
    }
}

layer {
    bottom: "res4b11_branch2b"
    top: "res4b11_branch2b"
    name: "bn4b11_branch2b"
    type: "BatchNorm"
    batch_norm_param {
        use_global_stats: true
    }
    param {
        lr_mult: 0.0
        decay_mult: 0.0
    }
    param {
        lr_mult: 0.0
        decay_mult: 0.0
    }
    param {
        lr_mult: 0.0
        decay_mult: 0.0
    }
}

layer {
    bottom: "res4b11_branch2b"
    top: "res4b11_branch2b"
    name: "scale4b11_branch2b"
    type: "Scale"
    scale_param {
        bias_term: true
    }
    param {
        lr_mult: 0.0
        decay_mult: 0.0
    }
    param {
        lr_mult: 0.0
        decay_mult: 0.0
    }
}

layer {
    top: "res4b11_branch2b"
    bottom: "res4b11_branch2b"
    name: "res4b11_branch2b_relu"
    type: "ReLU"
}

layer {
    bottom: "res4b11_branch2b"
    top: "res4b11_branch2c"
    name: "res4b11_branch2c"
    type: "Convolution"
    convolution_param {
        num_output: 1024
        kernel_size: 1
        pad: 0
        stride: 1
        bias_term: false
    }
    param {
        lr_mult: 1.0
    }
}

layer {
    bottom: "res4b11_branch2c"
    top: "res4b11_branch2c"
    name: "bn4b11_branch2c"
    type: "BatchNorm"
    batch_norm_param {
        use_global_stats: true
    }
    param {
        lr_mult: 0.0
        decay_mult: 0.0
    }
    param {
        lr_mult: 0.0
        decay_mult: 0.0
    }
    param {
        lr_mult: 0.0
        decay_mult: 0.0
    }
}

layer {
    bottom: "res4b11_branch2c"
    top: "res4b11_branch2c"
    name: "scale4b11_branch2c"
    type: "Scale"
    scale_param {
        bias_term: true
    }
    param {
        lr_mult: 0.0
        decay_mult: 0.0
    }
    param {
        lr_mult: 0.0
        decay_mult: 0.0
    }
}

layer {
    bottom: "res4b10"
    bottom: "res4b11_branch2c"
    top: "res4b11"
    name: "res4b11"
    type: "Eltwise"
}

layer {
    bottom: "res4b11"
    top: "res4b11"
    name: "res4b11_relu"
    type: "ReLU"
}

layer {
    bottom: "res4b11"
    top: "res4b12_branch2a"
    name: "res4b12_branch2a"
    type: "Convolution"
    convolution_param {
        num_output: 256
        kernel_size: 1
        pad: 0
        stride: 1
        bias_term: false
    }
    param {
        lr_mult: 1.0
    }
}

layer {
    bottom: "res4b12_branch2a"
    top: "res4b12_branch2a"
    name: "bn4b12_branch2a"
    type: "BatchNorm"
    batch_norm_param {
        use_global_stats: true
    }
    param {
        lr_mult: 0.0
        decay_mult: 0.0
    }
    param {
        lr_mult: 0.0
        decay_mult: 0.0
    }
    param {
        lr_mult: 0.0
        decay_mult: 0.0
    }
}

layer {
    bottom: "res4b12_branch2a"
    top: "res4b12_branch2a"
    name: "scale4b12_branch2a"
    type: "Scale"
    scale_param {
        bias_term: true
    }
    param {
        lr_mult: 0.0
        decay_mult: 0.0
    }
    param {
        lr_mult: 0.0
        decay_mult: 0.0
    }
}

layer {
    top: "res4b12_branch2a"
    bottom: "res4b12_branch2a"
    name: "res4b12_branch2a_relu"
    type: "ReLU"
}

layer {
    bottom: "res4b12_branch2a"
    top: "res4b12_branch2b"
    name: "res4b12_branch2b"
    type: "Convolution"
    convolution_param {
        num_output: 256
        kernel_size: 3
        pad: 1
        stride: 1
        bias_term: false
    }
    param {
        lr_mult: 1.0
    }
}

layer {
    bottom: "res4b12_branch2b"
    top: "res4b12_branch2b"
    name: "bn4b12_branch2b"
    type: "BatchNorm"
    batch_norm_param {
        use_global_stats: true
    }
    param {
        lr_mult: 0.0
        decay_mult: 0.0
    }
    param {
        lr_mult: 0.0
        decay_mult: 0.0
    }
    param {
        lr_mult: 0.0
        decay_mult: 0.0
    }
}

layer {
    bottom: "res4b12_branch2b"
    top: "res4b12_branch2b"
    name: "scale4b12_branch2b"
    type: "Scale"
    scale_param {
        bias_term: true
    }
    param {
        lr_mult: 0.0
        decay_mult: 0.0
    }
    param {
        lr_mult: 0.0
        decay_mult: 0.0
    }
}

layer {
    top: "res4b12_branch2b"
    bottom: "res4b12_branch2b"
    name: "res4b12_branch2b_relu"
    type: "ReLU"
}

layer {
    bottom: "res4b12_branch2b"
    top: "res4b12_branch2c"
    name: "res4b12_branch2c"
    type: "Convolution"
    convolution_param {
        num_output: 1024
        kernel_size: 1
        pad: 0
        stride: 1
        bias_term: false
    }
    param {
        lr_mult: 1.0
    }
}

layer {
    bottom: "res4b12_branch2c"
    top: "res4b12_branch2c"
    name: "bn4b12_branch2c"
    type: "BatchNorm"
    batch_norm_param {
        use_global_stats: true
    }
    param {
        lr_mult: 0.0
        decay_mult: 0.0
    }
    param {
        lr_mult: 0.0
        decay_mult: 0.0
    }
    param {
        lr_mult: 0.0
        decay_mult: 0.0
    }
}

layer {
    bottom: "res4b12_branch2c"
    top: "res4b12_branch2c"
    name: "scale4b12_branch2c"
    type: "Scale"
    scale_param {
        bias_term: true
    }
    param {
        lr_mult: 0.0
        decay_mult: 0.0
    }
    param {
        lr_mult: 0.0
        decay_mult: 0.0
    }
}

layer {
    bottom: "res4b11"
    bottom: "res4b12_branch2c"
    top: "res4b12"
    name: "res4b12"
    type: "Eltwise"
}

layer {
    bottom: "res4b12"
    top: "res4b12"
    name: "res4b12_relu"
    type: "ReLU"
}

layer {
    bottom: "res4b12"
    top: "res4b13_branch2a"
    name: "res4b13_branch2a"
    type: "Convolution"
    convolution_param {
        num_output: 256
        kernel_size: 1
        pad: 0
        stride: 1
        bias_term: false
    }
    param {
        lr_mult: 1.0
    }
}

layer {
    bottom: "res4b13_branch2a"
    top: "res4b13_branch2a"
    name: "bn4b13_branch2a"
    type: "BatchNorm"
    batch_norm_param {
        use_global_stats: true
    }
    param {
        lr_mult: 0.0
        decay_mult: 0.0
    }
    param {
        lr_mult: 0.0
        decay_mult: 0.0
    }
    param {
        lr_mult: 0.0
        decay_mult: 0.0
    }
}

layer {
    bottom: "res4b13_branch2a"
    top: "res4b13_branch2a"
    name: "scale4b13_branch2a"
    type: "Scale"
    scale_param {
        bias_term: true
    }
    param {
        lr_mult: 0.0
        decay_mult: 0.0
    }
    param {
        lr_mult: 0.0
        decay_mult: 0.0
    }
}

layer {
    top: "res4b13_branch2a"
    bottom: "res4b13_branch2a"
    name: "res4b13_branch2a_relu"
    type: "ReLU"
}

layer {
    bottom: "res4b13_branch2a"
    top: "res4b13_branch2b"
    name: "res4b13_branch2b"
    type: "Convolution"
    convolution_param {
        num_output: 256
        kernel_size: 3
        pad: 1
        stride: 1
        bias_term: false
    }
    param {
        lr_mult: 1.0
    }
}

layer {
    bottom: "res4b13_branch2b"
    top: "res4b13_branch2b"
    name: "bn4b13_branch2b"
    type: "BatchNorm"
    batch_norm_param {
        use_global_stats: true
    }
    param {
        lr_mult: 0.0
        decay_mult: 0.0
    }
    param {
        lr_mult: 0.0
        decay_mult: 0.0
    }
    param {
        lr_mult: 0.0
        decay_mult: 0.0
    }
}

layer {
    bottom: "res4b13_branch2b"
    top: "res4b13_branch2b"
    name: "scale4b13_branch2b"
    type: "Scale"
    scale_param {
        bias_term: true
    }
    param {
        lr_mult: 0.0
        decay_mult: 0.0
    }
    param {
        lr_mult: 0.0
        decay_mult: 0.0
    }
}

layer {
    top: "res4b13_branch2b"
    bottom: "res4b13_branch2b"
    name: "res4b13_branch2b_relu"
    type: "ReLU"
}

layer {
    bottom: "res4b13_branch2b"
    top: "res4b13_branch2c"
    name: "res4b13_branch2c"
    type: "Convolution"
    convolution_param {
        num_output: 1024
        kernel_size: 1
        pad: 0
        stride: 1
        bias_term: false
    }
    param {
        lr_mult: 1.0
    }
}

layer {
    bottom: "res4b13_branch2c"
    top: "res4b13_branch2c"
    name: "bn4b13_branch2c"
    type: "BatchNorm"
    batch_norm_param {
        use_global_stats: true
    }
    param {
        lr_mult: 0.0
        decay_mult: 0.0
    }
    param {
        lr_mult: 0.0
        decay_mult: 0.0
    }
    param {
        lr_mult: 0.0
        decay_mult: 0.0
    }
}

layer {
    bottom: "res4b13_branch2c"
    top: "res4b13_branch2c"
    name: "scale4b13_branch2c"
    type: "Scale"
    scale_param {
        bias_term: true
    }
    param {
        lr_mult: 0.0
        decay_mult: 0.0
    }
    param {
        lr_mult: 0.0
        decay_mult: 0.0
    }
}

layer {
    bottom: "res4b12"
    bottom: "res4b13_branch2c"
    top: "res4b13"
    name: "res4b13"
    type: "Eltwise"
}

layer {
    bottom: "res4b13"
    top: "res4b13"
    name: "res4b13_relu"
    type: "ReLU"
}

layer {
    bottom: "res4b13"
    top: "res4b14_branch2a"
    name: "res4b14_branch2a"
    type: "Convolution"
    convolution_param {
        num_output: 256
        kernel_size: 1
        pad: 0
        stride: 1
        bias_term: false
    }
    param {
        lr_mult: 1.0
    }
}

layer {
    bottom: "res4b14_branch2a"
    top: "res4b14_branch2a"
    name: "bn4b14_branch2a"
    type: "BatchNorm"
    batch_norm_param {
        use_global_stats: true
    }
    param {
        lr_mult: 0.0
        decay_mult: 0.0
    }
    param {
        lr_mult: 0.0
        decay_mult: 0.0
    }
    param {
        lr_mult: 0.0
        decay_mult: 0.0
    }
}

layer {
    bottom: "res4b14_branch2a"
    top: "res4b14_branch2a"
    name: "scale4b14_branch2a"
    type: "Scale"
    scale_param {
        bias_term: true
    }
    param {
        lr_mult: 0.0
        decay_mult: 0.0
    }
    param {
        lr_mult: 0.0
        decay_mult: 0.0
    }
}

layer {
    top: "res4b14_branch2a"
    bottom: "res4b14_branch2a"
    name: "res4b14_branch2a_relu"
    type: "ReLU"
}

layer {
    bottom: "res4b14_branch2a"
    top: "res4b14_branch2b"
    name: "res4b14_branch2b"
    type: "Convolution"
    convolution_param {
        num_output: 256
        kernel_size: 3
        pad: 1
        stride: 1
        bias_term: false
    }
    param {
        lr_mult: 1.0
    }
}

layer {
    bottom: "res4b14_branch2b"
    top: "res4b14_branch2b"
    name: "bn4b14_branch2b"
    type: "BatchNorm"
    batch_norm_param {
        use_global_stats: true
    }
    param {
        lr_mult: 0.0
        decay_mult: 0.0
    }
    param {
        lr_mult: 0.0
        decay_mult: 0.0
    }
    param {
        lr_mult: 0.0
        decay_mult: 0.0
    }
}

layer {
    bottom: "res4b14_branch2b"
    top: "res4b14_branch2b"
    name: "scale4b14_branch2b"
    type: "Scale"
    scale_param {
        bias_term: true
    }
    param {
        lr_mult: 0.0
        decay_mult: 0.0
    }
    param {
        lr_mult: 0.0
        decay_mult: 0.0
    }
}

layer {
    top: "res4b14_branch2b"
    bottom: "res4b14_branch2b"
    name: "res4b14_branch2b_relu"
    type: "ReLU"
}

layer {
    bottom: "res4b14_branch2b"
    top: "res4b14_branch2c"
    name: "res4b14_branch2c"
    type: "Convolution"
    convolution_param {
        num_output: 1024
        kernel_size: 1
        pad: 0
        stride: 1
        bias_term: false
    }
    param {
        lr_mult: 1.0
    }
}

layer {
    bottom: "res4b14_branch2c"
    top: "res4b14_branch2c"
    name: "bn4b14_branch2c"
    type: "BatchNorm"
    batch_norm_param {
        use_global_stats: true
    }
    param {
        lr_mult: 0.0
        decay_mult: 0.0
    }
    param {
        lr_mult: 0.0
        decay_mult: 0.0
    }
    param {
        lr_mult: 0.0
        decay_mult: 0.0
    }
}

layer {
    bottom: "res4b14_branch2c"
    top: "res4b14_branch2c"
    name: "scale4b14_branch2c"
    type: "Scale"
    scale_param {
        bias_term: true
    }
    param {
        lr_mult: 0.0
        decay_mult: 0.0
    }
    param {
        lr_mult: 0.0
        decay_mult: 0.0
    }
}

layer {
    bottom: "res4b13"
    bottom: "res4b14_branch2c"
    top: "res4b14"
    name: "res4b14"
    type: "Eltwise"
}

layer {
    bottom: "res4b14"
    top: "res4b14"
    name: "res4b14_relu"
    type: "ReLU"
}

layer {
    bottom: "res4b14"
    top: "res4b15_branch2a"
    name: "res4b15_branch2a"
    type: "Convolution"
    convolution_param {
        num_output: 256
        kernel_size: 1
        pad: 0
        stride: 1
        bias_term: false
    }
    param {
        lr_mult: 1.0
    }
}

layer {
    bottom: "res4b15_branch2a"
    top: "res4b15_branch2a"
    name: "bn4b15_branch2a"
    type: "BatchNorm"
    batch_norm_param {
        use_global_stats: true
    }
    param {
        lr_mult: 0.0
        decay_mult: 0.0
    }
    param {
        lr_mult: 0.0
        decay_mult: 0.0
    }
    param {
        lr_mult: 0.0
        decay_mult: 0.0
    }
}

layer {
    bottom: "res4b15_branch2a"
    top: "res4b15_branch2a"
    name: "scale4b15_branch2a"
    type: "Scale"
    scale_param {
        bias_term: true
    }
    param {
        lr_mult: 0.0
        decay_mult: 0.0
    }
    param {
        lr_mult: 0.0
        decay_mult: 0.0
    }
}

layer {
    top: "res4b15_branch2a"
    bottom: "res4b15_branch2a"
    name: "res4b15_branch2a_relu"
    type: "ReLU"
}

layer {
    bottom: "res4b15_branch2a"
    top: "res4b15_branch2b"
    name: "res4b15_branch2b"
    type: "Convolution"
    convolution_param {
        num_output: 256
        kernel_size: 3
        pad: 1
        stride: 1
        bias_term: false
    }
    param {
        lr_mult: 1.0
    }
}

layer {
    bottom: "res4b15_branch2b"
    top: "res4b15_branch2b"
    name: "bn4b15_branch2b"
    type: "BatchNorm"
    batch_norm_param {
        use_global_stats: true
    }
    param {
        lr_mult: 0.0
        decay_mult: 0.0
    }
    param {
        lr_mult: 0.0
        decay_mult: 0.0
    }
    param {
        lr_mult: 0.0
        decay_mult: 0.0
    }
}

layer {
    bottom: "res4b15_branch2b"
    top: "res4b15_branch2b"
    name: "scale4b15_branch2b"
    type: "Scale"
    scale_param {
        bias_term: true
    }
    param {
        lr_mult: 0.0
        decay_mult: 0.0
    }
    param {
        lr_mult: 0.0
        decay_mult: 0.0
    }
}

layer {
    top: "res4b15_branch2b"
    bottom: "res4b15_branch2b"
    name: "res4b15_branch2b_relu"
    type: "ReLU"
}

layer {
    bottom: "res4b15_branch2b"
    top: "res4b15_branch2c"
    name: "res4b15_branch2c"
    type: "Convolution"
    convolution_param {
        num_output: 1024
        kernel_size: 1
        pad: 0
        stride: 1
        bias_term: false
    }
    param {
        lr_mult: 1.0
    }
}

layer {
    bottom: "res4b15_branch2c"
    top: "res4b15_branch2c"
    name: "bn4b15_branch2c"
    type: "BatchNorm"
    batch_norm_param {
        use_global_stats: true
    }
    param {
        lr_mult: 0.0
        decay_mult: 0.0
    }
    param {
        lr_mult: 0.0
        decay_mult: 0.0
    }
    param {
        lr_mult: 0.0
        decay_mult: 0.0
    }
}

layer {
    bottom: "res4b15_branch2c"
    top: "res4b15_branch2c"
    name: "scale4b15_branch2c"
    type: "Scale"
    scale_param {
        bias_term: true
    }
    param {
        lr_mult: 0.0
        decay_mult: 0.0
    }
    param {
        lr_mult: 0.0
        decay_mult: 0.0
    }
}

layer {
    bottom: "res4b14"
    bottom: "res4b15_branch2c"
    top: "res4b15"
    name: "res4b15"
    type: "Eltwise"
}

layer {
    bottom: "res4b15"
    top: "res4b15"
    name: "res4b15_relu"
    type: "ReLU"
}

layer {
    bottom: "res4b15"
    top: "res4b16_branch2a"
    name: "res4b16_branch2a"
    type: "Convolution"
    convolution_param {
        num_output: 256
        kernel_size: 1
        pad: 0
        stride: 1
        bias_term: false
    }
    param {
        lr_mult: 1.0
    }
}

layer {
    bottom: "res4b16_branch2a"
    top: "res4b16_branch2a"
    name: "bn4b16_branch2a"
    type: "BatchNorm"
    batch_norm_param {
        use_global_stats: true
    }
    param {
        lr_mult: 0.0
        decay_mult: 0.0
    }
    param {
        lr_mult: 0.0
        decay_mult: 0.0
    }
    param {
        lr_mult: 0.0
        decay_mult: 0.0
    }
}

layer {
    bottom: "res4b16_branch2a"
    top: "res4b16_branch2a"
    name: "scale4b16_branch2a"
    type: "Scale"
    scale_param {
        bias_term: true
    }
    param {
        lr_mult: 0.0
        decay_mult: 0.0
    }
    param {
        lr_mult: 0.0
        decay_mult: 0.0
    }
}

layer {
    top: "res4b16_branch2a"
    bottom: "res4b16_branch2a"
    name: "res4b16_branch2a_relu"
    type: "ReLU"
}

layer {
    bottom: "res4b16_branch2a"
    top: "res4b16_branch2b"
    name: "res4b16_branch2b"
    type: "Convolution"
    convolution_param {
        num_output: 256
        kernel_size: 3
        pad: 1
        stride: 1
        bias_term: false
    }
    param {
        lr_mult: 1.0
    }
}

layer {
    bottom: "res4b16_branch2b"
    top: "res4b16_branch2b"
    name: "bn4b16_branch2b"
    type: "BatchNorm"
    batch_norm_param {
        use_global_stats: true
    }
    param {
        lr_mult: 0.0
        decay_mult: 0.0
    }
    param {
        lr_mult: 0.0
        decay_mult: 0.0
    }
    param {
        lr_mult: 0.0
        decay_mult: 0.0
    }
}

layer {
    bottom: "res4b16_branch2b"
    top: "res4b16_branch2b"
    name: "scale4b16_branch2b"
    type: "Scale"
    scale_param {
        bias_term: true
    }
    param {
        lr_mult: 0.0
        decay_mult: 0.0
    }
    param {
        lr_mult: 0.0
        decay_mult: 0.0
    }
}

layer {
    top: "res4b16_branch2b"
    bottom: "res4b16_branch2b"
    name: "res4b16_branch2b_relu"
    type: "ReLU"
}

layer {
    bottom: "res4b16_branch2b"
    top: "res4b16_branch2c"
    name: "res4b16_branch2c"
    type: "Convolution"
    convolution_param {
        num_output: 1024
        kernel_size: 1
        pad: 0
        stride: 1
        bias_term: false
    }
    param {
        lr_mult: 1.0
    }
}

layer {
    bottom: "res4b16_branch2c"
    top: "res4b16_branch2c"
    name: "bn4b16_branch2c"
    type: "BatchNorm"
    batch_norm_param {
        use_global_stats: true
    }
    param {
        lr_mult: 0.0
        decay_mult: 0.0
    }
    param {
        lr_mult: 0.0
        decay_mult: 0.0
    }
    param {
        lr_mult: 0.0
        decay_mult: 0.0
    }
}

layer {
    bottom: "res4b16_branch2c"
    top: "res4b16_branch2c"
    name: "scale4b16_branch2c"
    type: "Scale"
    scale_param {
        bias_term: true
    }
    param {
        lr_mult: 0.0
        decay_mult: 0.0
    }
    param {
        lr_mult: 0.0
        decay_mult: 0.0
    }
}

layer {
    bottom: "res4b15"
    bottom: "res4b16_branch2c"
    top: "res4b16"
    name: "res4b16"
    type: "Eltwise"
}

layer {
    bottom: "res4b16"
    top: "res4b16"
    name: "res4b16_relu"
    type: "ReLU"
}

layer {
    bottom: "res4b16"
    top: "res4b17_branch2a"
    name: "res4b17_branch2a"
    type: "Convolution"
    convolution_param {
        num_output: 256
        kernel_size: 1
        pad: 0
        stride: 1
        bias_term: false
    }
    param {
        lr_mult: 1.0
    }
}

layer {
    bottom: "res4b17_branch2a"
    top: "res4b17_branch2a"
    name: "bn4b17_branch2a"
    type: "BatchNorm"
    batch_norm_param {
        use_global_stats: true
    }
    param {
        lr_mult: 0.0
        decay_mult: 0.0
    }
    param {
        lr_mult: 0.0
        decay_mult: 0.0
    }
    param {
        lr_mult: 0.0
        decay_mult: 0.0
    }
}

layer {
    bottom: "res4b17_branch2a"
    top: "res4b17_branch2a"
    name: "scale4b17_branch2a"
    type: "Scale"
    scale_param {
        bias_term: true
    }
    param {
        lr_mult: 0.0
        decay_mult: 0.0
    }
    param {
        lr_mult: 0.0
        decay_mult: 0.0
    }
}

layer {
    top: "res4b17_branch2a"
    bottom: "res4b17_branch2a"
    name: "res4b17_branch2a_relu"
    type: "ReLU"
}

layer {
    bottom: "res4b17_branch2a"
    top: "res4b17_branch2b"
    name: "res4b17_branch2b"
    type: "Convolution"
    convolution_param {
        num_output: 256
        kernel_size: 3
        pad: 1
        stride: 1
        bias_term: false
    }
    param {
        lr_mult: 1.0
    }
}

layer {
    bottom: "res4b17_branch2b"
    top: "res4b17_branch2b"
    name: "bn4b17_branch2b"
    type: "BatchNorm"
    batch_norm_param {
        use_global_stats: true
    }
    param {
        lr_mult: 0.0
        decay_mult: 0.0
    }
    param {
        lr_mult: 0.0
        decay_mult: 0.0
    }
    param {
        lr_mult: 0.0
        decay_mult: 0.0
    }
}

layer {
    bottom: "res4b17_branch2b"
    top: "res4b17_branch2b"
    name: "scale4b17_branch2b"
    type: "Scale"
    scale_param {
        bias_term: true
    }
    param {
        lr_mult: 0.0
        decay_mult: 0.0
    }
    param {
        lr_mult: 0.0
        decay_mult: 0.0
    }
}

layer {
    top: "res4b17_branch2b"
    bottom: "res4b17_branch2b"
    name: "res4b17_branch2b_relu"
    type: "ReLU"
}

layer {
    bottom: "res4b17_branch2b"
    top: "res4b17_branch2c"
    name: "res4b17_branch2c"
    type: "Convolution"
    convolution_param {
        num_output: 1024
        kernel_size: 1
        pad: 0
        stride: 1
        bias_term: false
    }
    param {
        lr_mult: 1.0
    }
}

layer {
    bottom: "res4b17_branch2c"
    top: "res4b17_branch2c"
    name: "bn4b17_branch2c"
    type: "BatchNorm"
    batch_norm_param {
        use_global_stats: true
    }
    param {
        lr_mult: 0.0
        decay_mult: 0.0
    }
    param {
        lr_mult: 0.0
        decay_mult: 0.0
    }
    param {
        lr_mult: 0.0
        decay_mult: 0.0
    }
}

layer {
    bottom: "res4b17_branch2c"
    top: "res4b17_branch2c"
    name: "scale4b17_branch2c"
    type: "Scale"
    scale_param {
        bias_term: true
    }
    param {
        lr_mult: 0.0
        decay_mult: 0.0
    }
    param {
        lr_mult: 0.0
        decay_mult: 0.0
    }
}

layer {
    bottom: "res4b16"
    bottom: "res4b17_branch2c"
    top: "res4b17"
    name: "res4b17"
    type: "Eltwise"
}

layer {
    bottom: "res4b17"
    top: "res4b17"
    name: "res4b17_relu"
    type: "ReLU"
}

layer {
    bottom: "res4b17"
    top: "res4b18_branch2a"
    name: "res4b18_branch2a"
    type: "Convolution"
    convolution_param {
        num_output: 256
        kernel_size: 1
        pad: 0
        stride: 1
        bias_term: false
    }
    param {
        lr_mult: 1.0
    }
}

layer {
    bottom: "res4b18_branch2a"
    top: "res4b18_branch2a"
    name: "bn4b18_branch2a"
    type: "BatchNorm"
    batch_norm_param {
        use_global_stats: true
    }
    param {
        lr_mult: 0.0
        decay_mult: 0.0
    }
    param {
        lr_mult: 0.0
        decay_mult: 0.0
    }
    param {
        lr_mult: 0.0
        decay_mult: 0.0
    }
}

layer {
    bottom: "res4b18_branch2a"
    top: "res4b18_branch2a"
    name: "scale4b18_branch2a"
    type: "Scale"
    scale_param {
        bias_term: true
    }
    param {
        lr_mult: 0.0
        decay_mult: 0.0
    }
    param {
        lr_mult: 0.0
        decay_mult: 0.0
    }
}

layer {
    top: "res4b18_branch2a"
    bottom: "res4b18_branch2a"
    name: "res4b18_branch2a_relu"
    type: "ReLU"
}

layer {
    bottom: "res4b18_branch2a"
    top: "res4b18_branch2b"
    name: "res4b18_branch2b"
    type: "Convolution"
    convolution_param {
        num_output: 256
        kernel_size: 3
        pad: 1
        stride: 1
        bias_term: false
    }
    param {
        lr_mult: 1.0
    }
}

layer {
    bottom: "res4b18_branch2b"
    top: "res4b18_branch2b"
    name: "bn4b18_branch2b"
    type: "BatchNorm"
    batch_norm_param {
        use_global_stats: true
    }
    param {
        lr_mult: 0.0
        decay_mult: 0.0
    }
    param {
        lr_mult: 0.0
        decay_mult: 0.0
    }
    param {
        lr_mult: 0.0
        decay_mult: 0.0
    }
}

layer {
    bottom: "res4b18_branch2b"
    top: "res4b18_branch2b"
    name: "scale4b18_branch2b"
    type: "Scale"
    scale_param {
        bias_term: true
    }
    param {
        lr_mult: 0.0
        decay_mult: 0.0
    }
    param {
        lr_mult: 0.0
        decay_mult: 0.0
    }
}

layer {
    top: "res4b18_branch2b"
    bottom: "res4b18_branch2b"
    name: "res4b18_branch2b_relu"
    type: "ReLU"
}

layer {
    bottom: "res4b18_branch2b"
    top: "res4b18_branch2c"
    name: "res4b18_branch2c"
    type: "Convolution"
    convolution_param {
        num_output: 1024
        kernel_size: 1
        pad: 0
        stride: 1
        bias_term: false
    }
    param {
        lr_mult: 1.0
    }
}

layer {
    bottom: "res4b18_branch2c"
    top: "res4b18_branch2c"
    name: "bn4b18_branch2c"
    type: "BatchNorm"
    batch_norm_param {
        use_global_stats: true
    }
    param {
        lr_mult: 0.0
        decay_mult: 0.0
    }
    param {
        lr_mult: 0.0
        decay_mult: 0.0
    }
    param {
        lr_mult: 0.0
        decay_mult: 0.0
    }
}

layer {
    bottom: "res4b18_branch2c"
    top: "res4b18_branch2c"
    name: "scale4b18_branch2c"
    type: "Scale"
    scale_param {
        bias_term: true
    }
    param {
        lr_mult: 0.0
        decay_mult: 0.0
    }
    param {
        lr_mult: 0.0
        decay_mult: 0.0
    }
}

layer {
    bottom: "res4b17"
    bottom: "res4b18_branch2c"
    top: "res4b18"
    name: "res4b18"
    type: "Eltwise"
}

layer {
    bottom: "res4b18"
    top: "res4b18"
    name: "res4b18_relu"
    type: "ReLU"
}

layer {
    bottom: "res4b18"
    top: "res4b19_branch2a"
    name: "res4b19_branch2a"
    type: "Convolution"
    convolution_param {
        num_output: 256
        kernel_size: 1
        pad: 0
        stride: 1
        bias_term: false
    }
    param {
        lr_mult: 1.0
    }
}

layer {
    bottom: "res4b19_branch2a"
    top: "res4b19_branch2a"
    name: "bn4b19_branch2a"
    type: "BatchNorm"
    batch_norm_param {
        use_global_stats: true
    }
    param {
        lr_mult: 0.0
        decay_mult: 0.0
    }
    param {
        lr_mult: 0.0
        decay_mult: 0.0
    }
    param {
        lr_mult: 0.0
        decay_mult: 0.0
    }
}

layer {
    bottom: "res4b19_branch2a"
    top: "res4b19_branch2a"
    name: "scale4b19_branch2a"
    type: "Scale"
    scale_param {
        bias_term: true
    }
    param {
        lr_mult: 0.0
        decay_mult: 0.0
    }
    param {
        lr_mult: 0.0
        decay_mult: 0.0
    }
}

layer {
    top: "res4b19_branch2a"
    bottom: "res4b19_branch2a"
    name: "res4b19_branch2a_relu"
    type: "ReLU"
}

layer {
    bottom: "res4b19_branch2a"
    top: "res4b19_branch2b"
    name: "res4b19_branch2b"
    type: "Convolution"
    convolution_param {
        num_output: 256
        kernel_size: 3
        pad: 1
        stride: 1
        bias_term: false
    }
    param {
        lr_mult: 1.0
    }
}

layer {
    bottom: "res4b19_branch2b"
    top: "res4b19_branch2b"
    name: "bn4b19_branch2b"
    type: "BatchNorm"
    batch_norm_param {
        use_global_stats: true
    }
    param {
        lr_mult: 0.0
        decay_mult: 0.0
    }
    param {
        lr_mult: 0.0
        decay_mult: 0.0
    }
    param {
        lr_mult: 0.0
        decay_mult: 0.0
    }
}

layer {
    bottom: "res4b19_branch2b"
    top: "res4b19_branch2b"
    name: "scale4b19_branch2b"
    type: "Scale"
    scale_param {
        bias_term: true
    }
    param {
        lr_mult: 0.0
        decay_mult: 0.0
    }
    param {
        lr_mult: 0.0
        decay_mult: 0.0
    }
}

layer {
    top: "res4b19_branch2b"
    bottom: "res4b19_branch2b"
    name: "res4b19_branch2b_relu"
    type: "ReLU"
}

layer {
    bottom: "res4b19_branch2b"
    top: "res4b19_branch2c"
    name: "res4b19_branch2c"
    type: "Convolution"
    convolution_param {
        num_output: 1024
        kernel_size: 1
        pad: 0
        stride: 1
        bias_term: false
    }
    param {
        lr_mult: 1.0
    }
}

layer {
    bottom: "res4b19_branch2c"
    top: "res4b19_branch2c"
    name: "bn4b19_branch2c"
    type: "BatchNorm"
    batch_norm_param {
        use_global_stats: true
    }
    param {
        lr_mult: 0.0
        decay_mult: 0.0
    }
    param {
        lr_mult: 0.0
        decay_mult: 0.0
    }
    param {
        lr_mult: 0.0
        decay_mult: 0.0
    }
}

layer {
    bottom: "res4b19_branch2c"
    top: "res4b19_branch2c"
    name: "scale4b19_branch2c"
    type: "Scale"
    scale_param {
        bias_term: true
    }
    param {
        lr_mult: 0.0
        decay_mult: 0.0
    }
    param {
        lr_mult: 0.0
        decay_mult: 0.0
    }
}

layer {
    bottom: "res4b18"
    bottom: "res4b19_branch2c"
    top: "res4b19"
    name: "res4b19"
    type: "Eltwise"
}

layer {
    bottom: "res4b19"
    top: "res4b19"
    name: "res4b19_relu"
    type: "ReLU"
}

layer {
    bottom: "res4b19"
    top: "res4b20_branch2a"
    name: "res4b20_branch2a"
    type: "Convolution"
    convolution_param {
        num_output: 256
        kernel_size: 1
        pad: 0
        stride: 1
        bias_term: false
    }
    param {
        lr_mult: 1.0
    }
}

layer {
    bottom: "res4b20_branch2a"
    top: "res4b20_branch2a"
    name: "bn4b20_branch2a"
    type: "BatchNorm"
    batch_norm_param {
        use_global_stats: true
    }
    param {
        lr_mult: 0.0
        decay_mult: 0.0
    }
    param {
        lr_mult: 0.0
        decay_mult: 0.0
    }
    param {
        lr_mult: 0.0
        decay_mult: 0.0
    }
}

layer {
    bottom: "res4b20_branch2a"
    top: "res4b20_branch2a"
    name: "scale4b20_branch2a"
    type: "Scale"
    scale_param {
        bias_term: true
    }
    param {
        lr_mult: 0.0
        decay_mult: 0.0
    }
    param {
        lr_mult: 0.0
        decay_mult: 0.0
    }
}

layer {
    top: "res4b20_branch2a"
    bottom: "res4b20_branch2a"
    name: "res4b20_branch2a_relu"
    type: "ReLU"
}

layer {
    bottom: "res4b20_branch2a"
    top: "res4b20_branch2b"
    name: "res4b20_branch2b"
    type: "Convolution"
    convolution_param {
        num_output: 256
        kernel_size: 3
        pad: 1
        stride: 1
        bias_term: false
    }
    param {
        lr_mult: 1.0
    }
}

layer {
    bottom: "res4b20_branch2b"
    top: "res4b20_branch2b"
    name: "bn4b20_branch2b"
    type: "BatchNorm"
    batch_norm_param {
        use_global_stats: true
    }
    param {
        lr_mult: 0.0
        decay_mult: 0.0
    }
    param {
        lr_mult: 0.0
        decay_mult: 0.0
    }
    param {
        lr_mult: 0.0
        decay_mult: 0.0
    }
}

layer {
    bottom: "res4b20_branch2b"
    top: "res4b20_branch2b"
    name: "scale4b20_branch2b"
    type: "Scale"
    scale_param {
        bias_term: true
    }
    param {
        lr_mult: 0.0
        decay_mult: 0.0
    }
    param {
        lr_mult: 0.0
        decay_mult: 0.0
    }
}

layer {
    top: "res4b20_branch2b"
    bottom: "res4b20_branch2b"
    name: "res4b20_branch2b_relu"
    type: "ReLU"
}

layer {
    bottom: "res4b20_branch2b"
    top: "res4b20_branch2c"
    name: "res4b20_branch2c"
    type: "Convolution"
    convolution_param {
        num_output: 1024
        kernel_size: 1
        pad: 0
        stride: 1
        bias_term: false
    }
    param {
        lr_mult: 1.0
    }
}

layer {
    bottom: "res4b20_branch2c"
    top: "res4b20_branch2c"
    name: "bn4b20_branch2c"
    type: "BatchNorm"
    batch_norm_param {
        use_global_stats: true
    }
    param {
        lr_mult: 0.0
        decay_mult: 0.0
    }
    param {
        lr_mult: 0.0
        decay_mult: 0.0
    }
    param {
        lr_mult: 0.0
        decay_mult: 0.0
    }
}

layer {
    bottom: "res4b20_branch2c"
    top: "res4b20_branch2c"
    name: "scale4b20_branch2c"
    type: "Scale"
    scale_param {
        bias_term: true
    }
    param {
        lr_mult: 0.0
        decay_mult: 0.0
    }
    param {
        lr_mult: 0.0
        decay_mult: 0.0
    }
}

layer {
    bottom: "res4b19"
    bottom: "res4b20_branch2c"
    top: "res4b20"
    name: "res4b20"
    type: "Eltwise"
}

layer {
    bottom: "res4b20"
    top: "res4b20"
    name: "res4b20_relu"
    type: "ReLU"
}

layer {
    bottom: "res4b20"
    top: "res4b21_branch2a"
    name: "res4b21_branch2a"
    type: "Convolution"
    convolution_param {
        num_output: 256
        kernel_size: 1
        pad: 0
        stride: 1
        bias_term: false
    }
    param {
        lr_mult: 1.0
    }
}

layer {
    bottom: "res4b21_branch2a"
    top: "res4b21_branch2a"
    name: "bn4b21_branch2a"
    type: "BatchNorm"
    batch_norm_param {
        use_global_stats: true
    }
    param {
        lr_mult: 0.0
        decay_mult: 0.0
    }
    param {
        lr_mult: 0.0
        decay_mult: 0.0
    }
    param {
        lr_mult: 0.0
        decay_mult: 0.0
    }
}

layer {
    bottom: "res4b21_branch2a"
    top: "res4b21_branch2a"
    name: "scale4b21_branch2a"
    type: "Scale"
    scale_param {
        bias_term: true
    }
    param {
        lr_mult: 0.0
        decay_mult: 0.0
    }
    param {
        lr_mult: 0.0
        decay_mult: 0.0
    }
}

layer {
    top: "res4b21_branch2a"
    bottom: "res4b21_branch2a"
    name: "res4b21_branch2a_relu"
    type: "ReLU"
}

layer {
    bottom: "res4b21_branch2a"
    top: "res4b21_branch2b"
    name: "res4b21_branch2b"
    type: "Convolution"
    convolution_param {
        num_output: 256
        kernel_size: 3
        pad: 1
        stride: 1
        bias_term: false
    }
    param {
        lr_mult: 1.0
    }
}

layer {
    bottom: "res4b21_branch2b"
    top: "res4b21_branch2b"
    name: "bn4b21_branch2b"
    type: "BatchNorm"
    batch_norm_param {
        use_global_stats: true
    }
    param {
        lr_mult: 0.0
        decay_mult: 0.0
    }
    param {
        lr_mult: 0.0
        decay_mult: 0.0
    }
    param {
        lr_mult: 0.0
        decay_mult: 0.0
    }
}

layer {
    bottom: "res4b21_branch2b"
    top: "res4b21_branch2b"
    name: "scale4b21_branch2b"
    type: "Scale"
    scale_param {
        bias_term: true
    }
    param {
        lr_mult: 0.0
        decay_mult: 0.0
    }
    param {
        lr_mult: 0.0
        decay_mult: 0.0
    }
}

layer {
    top: "res4b21_branch2b"
    bottom: "res4b21_branch2b"
    name: "res4b21_branch2b_relu"
    type: "ReLU"
}

layer {
    bottom: "res4b21_branch2b"
    top: "res4b21_branch2c"
    name: "res4b21_branch2c"
    type: "Convolution"
    convolution_param {
        num_output: 1024
        kernel_size: 1
        pad: 0
        stride: 1
        bias_term: false
    }
    param {
        lr_mult: 1.0
    }
}

layer {
    bottom: "res4b21_branch2c"
    top: "res4b21_branch2c"
    name: "bn4b21_branch2c"
    type: "BatchNorm"
    batch_norm_param {
        use_global_stats: true
    }
    param {
        lr_mult: 0.0
        decay_mult: 0.0
    }
    param {
        lr_mult: 0.0
        decay_mult: 0.0
    }
    param {
        lr_mult: 0.0
        decay_mult: 0.0
    }
}

layer {
    bottom: "res4b21_branch2c"
    top: "res4b21_branch2c"
    name: "scale4b21_branch2c"
    type: "Scale"
    scale_param {
        bias_term: true
    }
    param {
        lr_mult: 0.0
        decay_mult: 0.0
    }
    param {
        lr_mult: 0.0
        decay_mult: 0.0
    }
}

layer {
    bottom: "res4b20"
    bottom: "res4b21_branch2c"
    top: "res4b21"
    name: "res4b21"
    type: "Eltwise"
}

layer {
    bottom: "res4b21"
    top: "res4b21"
    name: "res4b21_relu"
    type: "ReLU"
}

layer {
    bottom: "res4b21"
    top: "res4b22_branch2a"
    name: "res4b22_branch2a"
    type: "Convolution"
    convolution_param {
        num_output: 256
        kernel_size: 1
        pad: 0
        stride: 1
        bias_term: false
    }
    param {
        lr_mult: 1.0
    }
}

layer {
    bottom: "res4b22_branch2a"
    top: "res4b22_branch2a"
    name: "bn4b22_branch2a"
    type: "BatchNorm"
    batch_norm_param {
        use_global_stats: true
    }
    param {
        lr_mult: 0.0
        decay_mult: 0.0
    }
    param {
        lr_mult: 0.0
        decay_mult: 0.0
    }
    param {
        lr_mult: 0.0
        decay_mult: 0.0
    }
}

layer {
    bottom: "res4b22_branch2a"
    top: "res4b22_branch2a"
    name: "scale4b22_branch2a"
    type: "Scale"
    scale_param {
        bias_term: true
    }
    param {
        lr_mult: 0.0
        decay_mult: 0.0
    }
    param {
        lr_mult: 0.0
        decay_mult: 0.0
    }
}

layer {
    top: "res4b22_branch2a"
    bottom: "res4b22_branch2a"
    name: "res4b22_branch2a_relu"
    type: "ReLU"
}

layer {
    bottom: "res4b22_branch2a"
    top: "res4b22_branch2b"
    name: "res4b22_branch2b"
    type: "Convolution"
    convolution_param {
        num_output: 256
        kernel_size: 3
        pad: 1
        stride: 1
        bias_term: false
    }
    param {
        lr_mult: 1.0
    }
}

layer {
    bottom: "res4b22_branch2b"
    top: "res4b22_branch2b"
    name: "bn4b22_branch2b"
    type: "BatchNorm"
    batch_norm_param {
        use_global_stats: true
    }
    param {
        lr_mult: 0.0
        decay_mult: 0.0
    }
    param {
        lr_mult: 0.0
        decay_mult: 0.0
    }
    param {
        lr_mult: 0.0
        decay_mult: 0.0
    }
}

layer {
    bottom: "res4b22_branch2b"
    top: "res4b22_branch2b"
    name: "scale4b22_branch2b"
    type: "Scale"
    scale_param {
        bias_term: true
    }
    param {
        lr_mult: 0.0
        decay_mult: 0.0
    }
    param {
        lr_mult: 0.0
        decay_mult: 0.0
    }
}

layer {
    top: "res4b22_branch2b"
    bottom: "res4b22_branch2b"
    name: "res4b22_branch2b_relu"
    type: "ReLU"
}

layer {
    bottom: "res4b22_branch2b"
    top: "res4b22_branch2c"
    name: "res4b22_branch2c"
    type: "Convolution"
    convolution_param {
        num_output: 1024
        kernel_size: 1
        pad: 0
        stride: 1
        bias_term: false
    }
    param {
        lr_mult: 1.0
    }
}

layer {
    bottom: "res4b22_branch2c"
    top: "res4b22_branch2c"
    name: "bn4b22_branch2c"
    type: "BatchNorm"
    batch_norm_param {
        use_global_stats: true
    }
    param {
        lr_mult: 0.0
        decay_mult: 0.0
    }
    param {
        lr_mult: 0.0
        decay_mult: 0.0
    }
    param {
        lr_mult: 0.0
        decay_mult: 0.0
    }
}

layer {
    bottom: "res4b22_branch2c"
    top: "res4b22_branch2c"
    name: "scale4b22_branch2c"
    type: "Scale"
    scale_param {
        bias_term: true
    }
    param {
        lr_mult: 0.0
        decay_mult: 0.0
    }
    param {
        lr_mult: 0.0
        decay_mult: 0.0
    }
}

layer {
    bottom: "res4b21"
    bottom: "res4b22_branch2c"
    top: "res4b22"
    name: "res4b22"
    type: "Eltwise"
}

layer {
    bottom: "res4b22"
    top: "res4b22"
    name: "res4b22_relu"
    type: "ReLU"
}

# ========= add prediction layer for res4 =================
layer {
  name: "res4_norm"
  type: "Normalize"
  bottom: "res4b22"
  top: "res4_norm"
  norm_param {
    across_spatial: false
    scale_filler {
      type: "constant"
      value: 40  #1120: 20-->40, since its channel is only 256, so need 80?
    }
    channel_shared: false
  }
}

layer {
   name: "res4_proposal"
   type: "Convolution"
   bottom: "res4_norm"
   top: "res4_proposal"
	param {
		lr_mult: 1.0
	}
	param {
		lr_mult: 2.0
	}
   convolution_param{
	   num_output: 512
	   kernel_size: 3
	   pad: 1
	   stride: 1
	   weight_filler {
		 type: "gaussian"
		 std: 0.01
	   }
	   bias_filler {
		 type: "constant"
		 value: 0
	   }
   }
}
# ================end res4 prediction=================

layer {
	bottom: "res4b22"
	top: "res5a_branch1"
	name: "res5a_branch1"
	type: "Convolution"
	convolution_param {
		num_output: 2048
		kernel_size: 1
		pad: 0
		stride: 2
		bias_term: false
	}
	param {
        lr_mult: 1.0
    }
}



layer {
    bottom: "res5a_branch1"
    top: "res5a_branch1"
    name: "bn5a_branch1"
    type: "BatchNorm"
    batch_norm_param {
        use_global_stats: true
    }
    param {
        lr_mult: 0.0
        decay_mult: 0.0
    }
    param {
        lr_mult: 0.0
        decay_mult: 0.0
    }
    param {
        lr_mult: 0.0
        decay_mult: 0.0
    }
}

layer {
    bottom: "res5a_branch1"
    top: "res5a_branch1"
    name: "scale5a_branch1"
    type: "Scale"
    scale_param {
        bias_term: true
    }
    param {
        lr_mult: 0.0
        decay_mult: 0.0
    }
    param {
        lr_mult: 0.0
        decay_mult: 0.0
    }
}

layer {
	bottom: "res4b22"
	top: "res5a_branch2a"
	name: "res5a_branch2a"
	type: "Convolution"
	convolution_param {
		num_output: 512
		kernel_size: 1
		pad: 0
		stride: 2
		bias_term: false
	}
    param {
        lr_mult: 1.0
    }
}

layer {
    bottom: "res5a_branch2a"
    top: "res5a_branch2a"
    name: "bn5a_branch2a"
    type: "BatchNorm"
    batch_norm_param {
        use_global_stats: true
    }
    param {
        lr_mult: 0.0
        decay_mult: 0.0
    }
    param {
        lr_mult: 0.0
        decay_mult: 0.0
    }
    param {
        lr_mult: 0.0
        decay_mult: 0.0
    }
}

layer {
    bottom: "res5a_branch2a"
    top: "res5a_branch2a"
    name: "scale5a_branch2a"
    type: "Scale"
    scale_param {
        bias_term: true
    }
    param {
        lr_mult: 0.0
        decay_mult: 0.0
    }
    param {
        lr_mult: 0.0
        decay_mult: 0.0
    }
}

layer {
    top: "res5a_branch2a"
    bottom: "res5a_branch2a"
    name: "res5a_branch2a_relu"
    type: "ReLU"
}

layer {
	bottom: "res5a_branch2a"
	top: "res5a_branch2b"
	name: "res5a_branch2b"
	type: "Convolution"
	convolution_param {
		num_output: 512
		kernel_size: 3
		pad: 1
		stride: 1
		bias_term: false
	}
    param {
        lr_mult: 1.0
    }
}

layer {
    bottom: "res5a_branch2b"
    top: "res5a_branch2b"
    name: "bn5a_branch2b"
    type: "BatchNorm"
    batch_norm_param {
        use_global_stats: true
    }
    param {
        lr_mult: 0.0
        decay_mult: 0.0
    }
    param {
        lr_mult: 0.0
        decay_mult: 0.0
    }
    param {
        lr_mult: 0.0
        decay_mult: 0.0
    }
}

layer {
    bottom: "res5a_branch2b"
    top: "res5a_branch2b"
    name: "scale5a_branch2b"
    type: "Scale"
    scale_param {
        bias_term: true
    }
    param {
        lr_mult: 0.0
        decay_mult: 0.0
    }
    param {
        lr_mult: 0.0
        decay_mult: 0.0
    }
}

layer {
    top: "res5a_branch2b"
    bottom: "res5a_branch2b"
    name: "res5a_branch2b_relu"
    type: "ReLU"
}

layer {
    bottom: "res5a_branch2b"
    top: "res5a_branch2c"
    name: "res5a_branch2c"
    type: "Convolution"
    convolution_param {
        num_output: 2048
        kernel_size: 1
        pad: 0
        stride: 1
        bias_term: false
    }
    param {
        lr_mult: 1.0
    }
}

layer {
    bottom: "res5a_branch2c"
    top: "res5a_branch2c"
    name: "bn5a_branch2c"
    type: "BatchNorm"
    batch_norm_param {
        use_global_stats: true
    }
    param {
        lr_mult: 0.0
        decay_mult: 0.0
    }
    param {
        lr_mult: 0.0
        decay_mult: 0.0
    }
    param {
        lr_mult: 0.0
        decay_mult: 0.0
    }
}

layer {
    bottom: "res5a_branch2c"
    top: "res5a_branch2c"
    name: "scale5a_branch2c"
    type: "Scale"
    scale_param {
        bias_term: true
    }
    param {
        lr_mult: 0.0
        decay_mult: 0.0
    }
    param {
        lr_mult: 0.0
        decay_mult: 0.0
    }
}

layer {
    bottom: "res5a_branch1"
    bottom: "res5a_branch2c"
    top: "res5a"
    name: "res5a"
    type: "Eltwise"
}

layer {
    bottom: "res5a"
    top: "res5a"
    name: "res5a_relu"
    type: "ReLU"
}

layer {
    bottom: "res5a"
    top: "res5b_branch2a"
    name: "res5b_branch2a"
    type: "Convolution"
    convolution_param {
        num_output: 512
        kernel_size: 1
        pad: 0
        stride: 1
        bias_term: false
    }
    param {
        lr_mult: 1.0
    }
}

layer {
    bottom: "res5b_branch2a"
    top: "res5b_branch2a"
    name: "bn5b_branch2a"
    type: "BatchNorm"
    batch_norm_param {
        use_global_stats: true
    }
    param {
        lr_mult: 0.0
        decay_mult: 0.0
    }
    param {
        lr_mult: 0.0
        decay_mult: 0.0
    }
    param {
        lr_mult: 0.0
        decay_mult: 0.0
    }
}

layer {
    bottom: "res5b_branch2a"
    top: "res5b_branch2a"
    name: "scale5b_branch2a"
    type: "Scale"
    scale_param {
        bias_term: true
    }
    param {
        lr_mult: 0.0
        decay_mult: 0.0
    }
    param {
        lr_mult: 0.0
        decay_mult: 0.0
    }
}

layer {
	top: "res5b_branch2a"
	bottom: "res5b_branch2a"
	name: "res5b_branch2a_relu"
	type: "ReLU"
}

layer {
	bottom: "res5b_branch2a"
	top: "res5b_branch2b"
	name: "res5b_branch2b"
	type: "Convolution"
	convolution_param {
		num_output: 512
		kernel_size: 3
		pad: 1
		stride: 1
		bias_term: false
	}
    param {
        lr_mult: 1.0
    }
}

layer {
    bottom: "res5b_branch2b"
    top: "res5b_branch2b"
    name: "bn5b_branch2b"
    type: "BatchNorm"
    batch_norm_param {
        use_global_stats: true
    }
    param {
        lr_mult: 0.0
        decay_mult: 0.0
    }
    param {
        lr_mult: 0.0
        decay_mult: 0.0
    }
    param {
        lr_mult: 0.0
        decay_mult: 0.0
    }
}

layer {
    bottom: "res5b_branch2b"
    top: "res5b_branch2b"
    name: "scale5b_branch2b"
    type: "Scale"
    scale_param {
        bias_term: true
    }
    param {
        lr_mult: 0.0
        decay_mult: 0.0
    }
    param {
        lr_mult: 0.0
        decay_mult: 0.0
    }
}

layer {
    top: "res5b_branch2b"
    bottom: "res5b_branch2b"
    name: "res5b_branch2b_relu"
    type: "ReLU"
}

layer {
    bottom: "res5b_branch2b"
    top: "res5b_branch2c"
    name: "res5b_branch2c"
    type: "Convolution"
    convolution_param {
        num_output: 2048
        kernel_size: 1
        pad: 0
        stride: 1
        bias_term: false
    }
    param {
        lr_mult: 1.0
    }
}

layer {
    bottom: "res5b_branch2c"
    top: "res5b_branch2c"
    name: "bn5b_branch2c"
    type: "BatchNorm"
    batch_norm_param {
        use_global_stats: true
    }
    param {
        lr_mult: 0.0
        decay_mult: 0.0
    }
    param {
        lr_mult: 0.0
        decay_mult: 0.0
    }
    param {
        lr_mult: 0.0
        decay_mult: 0.0
    }
}

layer {
    bottom: "res5b_branch2c"
    top: "res5b_branch2c"
    name: "scale5b_branch2c"
    type: "Scale"
    scale_param {
        bias_term: true
    }
    param {
        lr_mult: 0.0
        decay_mult: 0.0
    }
    param {
        lr_mult: 0.0
        decay_mult: 0.0
    }
}

layer {
    bottom: "res5a"
    bottom: "res5b_branch2c"
    top: "res5b"
    name: "res5b"
    type: "Eltwise"
}

layer {
    bottom: "res5b"
    top: "res5b"
    name: "res5b_relu"
    type: "ReLU"
}

layer {
    bottom: "res5b"
    top: "res5c_branch2a"
    name: "res5c_branch2a"
    type: "Convolution"
    convolution_param {
        num_output: 512
        kernel_size: 1
        pad: 0
        stride: 1
        bias_term: false
    }
    param {
        lr_mult: 1.0
    }
}

layer {
    bottom: "res5c_branch2a"
    top: "res5c_branch2a"
    name: "bn5c_branch2a"
    type: "BatchNorm"
    batch_norm_param {
        use_global_stats: true
    }
    param {
        lr_mult: 0.0
        decay_mult: 0.0
    }
    param {
        lr_mult: 0.0
        decay_mult: 0.0
    }
    param {
        lr_mult: 0.0
        decay_mult: 0.0
    }
}

layer {
    bottom: "res5c_branch2a"
    top: "res5c_branch2a"
    name: "scale5c_branch2a"
    type: "Scale"
    scale_param {
        bias_term: true
    }
    param {
        lr_mult: 0.0
        decay_mult: 0.0
    }
    param {
        lr_mult: 0.0
        decay_mult: 0.0
    }
}

layer {
	top: "res5c_branch2a"
	bottom: "res5c_branch2a"
	name: "res5c_branch2a_relu"
	type: "ReLU"
}

layer {
	bottom: "res5c_branch2a"
	top: "res5c_branch2b"
	name: "res5c_branch2b"
	type: "Convolution"
	convolution_param {
		num_output: 512
		kernel_size: 3
		pad: 1
		stride: 1
		bias_term: false
	}
    param {
        lr_mult: 1.0
    }
}

layer {
    bottom: "res5c_branch2b"
    top: "res5c_branch2b"
    name: "bn5c_branch2b"
    type: "BatchNorm"
    batch_norm_param {
        use_global_stats: true
    }
    param {
        lr_mult: 0.0
        decay_mult: 0.0
    }
    param {
        lr_mult: 0.0
        decay_mult: 0.0
    }
    param {
        lr_mult: 0.0
        decay_mult: 0.0
    }
}

layer {
    bottom: "res5c_branch2b"
    top: "res5c_branch2b"
    name: "scale5c_branch2b"
    type: "Scale"
    scale_param {
        bias_term: true
    }
    param {
        lr_mult: 0.0
        decay_mult: 0.0
    }
    param {
        lr_mult: 0.0
        decay_mult: 0.0
    }
}

layer {
    top: "res5c_branch2b"
    bottom: "res5c_branch2b"
    name: "res5c_branch2b_relu"
    type: "ReLU"
}

layer {
    bottom: "res5c_branch2b"
    top: "res5c_branch2c"
    name: "res5c_branch2c"
    type: "Convolution"
    convolution_param {
        num_output: 2048
        kernel_size: 1
        pad: 0
        stride: 1
        bias_term: false
    }
    param {
        lr_mult: 1.0
    }
}

layer {
    bottom: "res5c_branch2c"
    top: "res5c_branch2c"
    name: "bn5c_branch2c"
    type: "BatchNorm"
    batch_norm_param {
        use_global_stats: true
    }
    param {
        lr_mult: 0.0
        decay_mult: 0.0
    }
    param {
        lr_mult: 0.0
        decay_mult: 0.0
    }
    param {
        lr_mult: 0.0
        decay_mult: 0.0
    }
}

layer {
    bottom: "res5c_branch2c"
    top: "res5c_branch2c"
    name: "scale5c_branch2c"
    type: "Scale"
    scale_param {
        bias_term: true
    }
    param {
        lr_mult: 0.0
        decay_mult: 0.0
    }
    param {
        lr_mult: 0.0
        decay_mult: 0.0
    }
}

layer {
	bottom: "res5b"
	bottom: "res5c_branch2c"
	top: "res5c"
	name: "res5c"
	type: "Eltwise"
}

layer {
	bottom: "res5c"
	top: "res5c"
	name: "res5c_relu"
	type: "ReLU"
}

# ========= add prediction layer for res5 =================
# deconvolution by 2
layer {
  bottom: "res5c" 
  top: "res5_2x"
  name: "res5_2x" 
  type: "Deconvolution"
  convolution_param {
    kernel_size: 4 
    stride: 2
    num_output: 2048
    group: 2048
    pad: 1
    weight_filler: { type: "bilinear" } 
    bias_term: false
  }
  param { lr_mult: 0 decay_mult: 0 }
}

layer {
  name: "res5_norm"
  type: "Normalize"
  bottom: "res5_2x"
  top: "res5_norm"
  norm_param {
    across_spatial: false
    scale_filler {
      type: "constant"
      value: 40  #1120: 20-->40, since its channel is only 256, so need 80?
    }
    channel_shared: false
  }
}

layer {
   name: "res5_proposal"
   type: "Convolution"
   bottom: "res5_norm"
   top: "res5_proposal"
	param {
		lr_mult: 1.0
	}
	param {
		lr_mult: 2.0
	}
   convolution_param{
	   num_output: 1024
	   kernel_size: 3
	   pad: 1
	   stride: 1
	   weight_filler {
		 type: "gaussian"
		 std: 0.01
	   }
	   bias_filler {
		 type: "constant"
		 value: 0
	   }
   }
}

layer {
    bottom: "res4_proposal"  #512
    bottom: "res5_proposal"  #1024
    top: "conv_proposal_res45"
    name: "conv_proposal_res45"
    type: "Concat"
    concat_param {
	axis: 1
    }
}

layer {
   name: "relu_proposal_res45"
   type: "ReLU"
   bottom: "conv_proposal_res45"
   top: "conv_proposal_res45"
}

layer {
   name: "proposal_cls_score_res45"
   type: "Convolution"
   bottom: "conv_proposal_res45"
   top: "proposal_cls_score_res45"
	param {
		lr_mult: 1.0
	}
	param {
		lr_mult: 2.0
	}
   convolution_param{
	   num_output: 16
	   kernel_size: 1
	   pad: 0
	   stride: 1
	   weight_filler {
		 type: "gaussian"
		 std: 0.01
	   }
	   bias_filler {
		 type: "constant"
		 value: 0
	   }
   }
}

layer {
   name: "proposal_bbox_pred_res45"
   type: "Convolution"
   bottom: "conv_proposal_res45"
   top: "proposal_bbox_pred_res45"
	param {
		lr_mult: 1.0
	}
	param {
		lr_mult: 2.0
	}
   convolution_param{
	   num_output: 32
	   kernel_size: 1
	   pad: 0
	   stride: 1
	   weight_filler {
		 type: "gaussian"
		 std: 0.01
	   }
	   bias_filler {
		 type: "constant"
		 value: 0
	   }
   }
}
# ========= end of res5 prediction =================

#-----------------------output1/2 (for res23)------------------------

# to enable the calculation of softmax loss, we first reshape blobs related to SoftmaxWithLoss
layer {
   bottom: "proposal_cls_score_res23"
   top: "proposal_cls_score_res23_reshape"
   name: "proposal_cls_score_res23_reshape"
   type: "Reshape"
   reshape_param{
	   shape {
			dim: 0 
			dim: 2
			dim: -1 
			dim: 0
		}
	}
}

layer {
   bottom: "labels_res23"
   top: "labels_res23_reshape"
   name: "labels_res23_reshape"
   type: "Reshape"
   reshape_param{
	   shape {
			dim: 0 
			dim: 1
			dim: -1 
			dim: 0
		}
	}
}

layer {
   bottom: "labels_weights_res23"
   top: "labels_weights_res23_reshape"
   name: "labels_weights_res23_reshape"
   type: "Reshape"
   reshape_param{
	   shape {
			dim: 0 
			dim: 1
			dim: -1 
			dim: 0
		}
	}
}

#1123 add ignore_label
# this is the overall accuracy of all fgs (thresh >= 0.5) and bgs (0 <= thresh < 0.3)
layer {
   name: "accuarcy_res23"
   type: "Accuracy"
   bottom: "proposal_cls_score_res23_reshape"
   bottom: "labels_res23_reshape"
   top: "accuarcy_res23"
   accuracy_param {
        ignore_label: -1
   }
}

# final loss cls output 
layer {
   name: "loss_res23"
   type: "SoftmaxWithLoss"
   bottom: "proposal_cls_score_res23_reshape"
   bottom: "labels_res23_reshape"
   bottom: "labels_weights_res23_reshape"
   top: "loss_cls_res23"
   loss_weight: 1
   propagate_down: true
   propagate_down: false
   propagate_down: false
}

layer {
  name: "loss_bbox_res23"
  type: "SmoothL1Loss"
  bottom: "proposal_bbox_pred_res23" #[1 24 56 56]
  bottom: "bbox_targets_res23"       #[1 24 56 56]
  bottom: "bbox_loss_weights_res23"  #[1 24 56 56]
  top: "loss_bbox_res23"
  loss_weight: 80  #conv3: 80, conv4: 20, conv5: 10, conv6:5
}

#-----------------------output2/2 (for res45)------------------------
# to enable the calculation of softmax loss, we first reshape blobs related to SoftmaxWithLoss
layer {
   bottom: "proposal_cls_score_res45"
   top: "proposal_cls_score_res45_reshape"
   name: "proposal_cls_score_res45_reshape"
   type: "Reshape"
   reshape_param{
	   shape {
			dim: 0 
			dim: 2
			dim: -1 
			dim: 0
		}
	}
}

layer {
   bottom: "labels_res45"
   top: "labels_res45_reshape"
   name: "labels_res45_reshape"
   type: "Reshape"
   reshape_param{
	   shape {
			dim: 0 
			dim: 1
			dim: -1 
			dim: 0
		}
	}
}

layer {
   bottom: "labels_weights_res45"
   top: "labels_weights_res45_reshape"
   name: "labels_weights_res45_reshape"
   type: "Reshape"
   reshape_param{
	   shape {
			dim: 0 
			dim: 1
			dim: -1 
			dim: 0
		}
	}
}

#1123 add ignore_label
# this is the overall accuracy of all fgs (thresh >= 0.5) and bgs (0 <= thresh < 0.3)
layer {
   name: "accuarcy_res45"
   type: "Accuracy"
   bottom: "proposal_cls_score_res45_reshape"
   bottom: "labels_res45_reshape"
   top: "accuarcy_res45"
   accuracy_param {
        ignore_label: -1
   }
}

# final loss cls output 
layer {
   name: "loss_res45"
   type: "SoftmaxWithLoss"
   bottom: "proposal_cls_score_res45_reshape"
   bottom: "labels_res45_reshape"
   bottom: "labels_weights_res45_reshape"
   top: "loss_cls_res45"
   loss_weight: 1
   propagate_down: true
   propagate_down: false
   propagate_down: false
}

layer {
  name: "loss_bbox_res45"
  type: "SmoothL1Loss"
  bottom: "proposal_bbox_pred_res45" #[1 32 14 14]
  bottom: "bbox_targets_res45"       #[1 32 14 14]
  bottom: "bbox_loss_weights_res45"  #[1 32 14 14]
  top: "loss_bbox_res45"
  loss_weight: 5  #conv3: 80, conv4: 20, conv5: 10, conv6:5
}
